models/apr_24/state_estimator_model_10.pt (torch, 834872 bytes, 19 tensors)

std f4 [3]
000000 00 00 80 3f 00 00 80 3f 00 00 80 3f
       1.0 1.0 1.0

actor.0.weight f4 [256, 138]
000000 92 70 ac 3b a9 f6 1c 3b 03 5c a4 3b 01 66 c0 bb
       0.005262443 0.0023950732 0.0050158515 -0.005871535
000010 e9 e3 00 3c b8 af 6a 3a 51 b4 95 3a 22 19 bf 3b
       0.007866838 0.0008952576 0.0011421536 0.0058318535
000020 95 8c 81 ba b6 5e 1b 3b 62 ab 36 bb dd 60 9d 3b
       -0.0009883816 0.0023707575 -0.0027873148 0.004802807
000030 a6 bf 0c 3b 7c 4b cf 3a 9e 1f 9f 3a 85 5f 9c 3b
       0.0021476536 0.0015815343 0.001214016 0.004772129
000040 d8 73 a2 3b e7 92 88 3a 8a 8e 88 3b f2 59 30 ba
       0.0049576573 0.0010419757 0.0041673826 -0.000672727
000050 8f 50 b2 3a 11 95 8e b9 da 00 08 39 4f 5e 9e 3b
       0.0013604331 -0.00027195414 0.00012970288 0.00483302
000060 5b ec a5 3b 54 74 2c bb 2b c3 28 bc 6f 9f b4 3a
       0.005063576 -0.0026314454 -0.010300438 0.0013780425
000070 45 39 6d 3b f1 cf db bb 1a 74 ae ba 1a fe 32 3b
       0.0036197465 -0.006708138 -0.0013309747 0.00273121
000080 3f 00 3a bc d0 24 12 bb b4 f8 4d bb c5 16 cc 3b
       -0.011352598 -0.0022299774 -0.0031428756 0.0062283003
000090 6f 48 91 bb 96 a4 82 ba 53 a5 ed bb b4 8f aa 3a
       -0.0044336836 -0.0009967263 -0.007252374 0.0013012798
0000a0 25 1c 76 ba 37 1d d6 3b 6c a3 80 3b f2 bf 14 bb
       -0.0009388349 0.0065342444 0.0039257314 -0.0022697416
0000b0 2b c4 09 ba b8 94 8a 3b 62 84 b4 3a 4c 12 69 bb
       -0.00052553666 0.0042291544 0.0013772363 -0.0035563884
0000c0 21 55 fd ba c6 9b 15 3a 33 1c 60 3b df 6b 80 3b
       -0.0019327739 0.0005707111 0.0034196496 0.0039191092
0000d0 40 8f 02 3c 93 10 71 3b 15 a9 9e 3b de 90 8c ba
       0.007968724 0.003678356 0.0048419335 -0.0010724326
0000e0 de 6b 45 bb 53 d6 29 3b 4a cd 45 bb e7 91 bb bb
       -0.0030124108 0.00259151 -0.0030182176 -0.00572418
0000f0 1c 7f f6 3a f2 56 7a bb 22 b3 d7 3a 10 71 c0 3b
       0.0018806192 -0.0038198796 0.0016456584 0.005872853
000100 42 60 7a 3a 4a 41 25 bc d8 8d 58 bb 35 a4 d9 3b
       0.00095510867 -0.010086367 -0.003304353 0.0066418895
000110 4f b4 d5 bb 01 e0 28 39 76 32 01 bb 81 54 8a 3b
       -0.0065217386 0.00016105176 -0.0019713915 0.0042214994
000120 82 6f e3 3a 3c e9 1a 3a 9b ef e8 3a 73 0e 55 39
       0.0017351958 0.00059093884 0.0017771603 0.00020318646
000130 80 9a 51 3b d8 77 94 3a e6 f1 99 38 9a 72 e8 3b
       0.0031982958 0.001132722 7.3406656e-05 0.0070937397
000140 96 3e 79 bb 61 2c 88 ba 14 0c 72 bb e8 74 89 3b
       -0.003803169 -0.0010389203 -0.0036933469 0.0041948445
000150 e3 cc 86 3a 64 f5 e6 3a d3 4e 43 3a 07 9c 2f 3b
       0.001028445 0.001762074 0.00074504054 0.002679588
000160 42 07 df 39 82 af 51 3a d2 8d da 39 4e c9 c7 3b
       0.00042539282 0.000799887 0.00041685865 0.0060969954
000170 36 74 3f bb be 7e 4c 3a 75 ec 92 ba e9 1d 00 3b
       -0.0029213554 0.00078008685 -0.0011209386 0.0019549078
000180 a8 3b 9a 3a 95 2e 27 3b f9 65 f1 3a a9 ae a8 3b
       0.0011767047 0.0025509943 0.0018417231 0.0051477742
000190 b7 dc 10 3b b6 50 ab 3a f9 e1 6d 3b 2d f2 9f 39
       0.0022104213 0.0013070318 0.003629802 0.00030507278
0001a0 4b 99 8c 3b b7 17 8a bb a4 de 79 bb 3e 10 07 3b
       0.004290735 -0.004214253 -0.003812709 0.0020609046
0001b0 61 00 b4 bb 57 7f 27 3b 43 f8 d1 39 e9 3f f6 ba
       -0.005493209 0.0025558078 0.00040048556 -0.0018787357
0001c0 9b 2d 34 bb ff 8b 0b 3b eb 55 85 3b 13 64 1e bb
       -0.0027493003 0.002129316 0.00406908 -0.0024168536
0001d0 72 fa 17 bb 2e fc 25 bb 2d 63 d4 3b f5 a8 65 bb
       -0.0023190049 -0.0025327313 0.0064815492 -0.0035043333
0001e0 2b a9 3c 3b 55 47 1b 3b 70 0b 12 bc f4 b1 2d 3c
       0.0028787355 0.002369364 -0.00891386 0.010601509
0001f0 cf f4 78 3b 2b 50 bc b9 18 3a c3 3a 76 12 b1 b9
       0.0037987714 -0.00035917884 0.0014894633 -0.00033773825
000200 65 2d 0c 3c f1 58 76 3b ea 38 9b 3b 1c e6 a2 3b
       0.008555745 0.0037589634 0.0047370093 0.004971279
000210 ad 71 20 bb aa ff 6b 3b dd 85 52 3b 33 94 93 39
       -0.0024481819 0.0036010542 0.0032123246 0.00028148442
000220 7c 5a 13 3b 1f 49 be 39 f8 f6 75 bb b5 29 8c bb
       0.0022484353 0.00036294103 -0.0037531238 -0.004277433
000230 5b 36 d0 ba 56 42 35 3b 8b 26 cc bb f8 05 a3 b9
       -0.001588534 0.0027657948 -0.0062301806 -0.0003109423
000240 d4 b7 02 3a ab b9 e7 ba fe 1d 34 39 ef 89 91 bb
       0.0004986499 -0.0017679235 0.0001717731 -0.004441492
000250 fe 0c 14 bb 23 32 be bb 89 34 a7 bb 99 99 b4 3a
       -0.0022590752 -0.0058043166 -0.005102698 0.0013778686
000260 f5 ad f0 3a b7 41 26 3b f8 3e dd bb 8a ed bb ba
       0.001836239 0.002536876 -0.006751891 -0.001433776
000270 6f d9 06 bc 2c bb dd 3b c1 09 94 bb 73 3b 36 3b
       -0.008230551 0.0067666974 -0.0045177643 0.002780643
000280 8e f3 95 3a 82 74 b9 bb 65 db bc 38 82 45 00 3b
       0.0011440383 -0.0056596408 9.005404e-05 0.001957268
000290 9c fd 6a 3c 97 17 da ba 3f f2 cc ba d5 5c 11 3b
       0.014342692 -0.001663911 -0.001563616 0.0022180576
0002a0 50 e6 36 bc 0f 21 b7 bb e9 5d 02 3c 3e c4 de 3b
       -0.011163309 -0.0055886577 0.00795696 0.0067982962
0002b0 78 28 28 3a 11 00 c1 bb 92 9a c1 ba 2f cc d7 3b
       0.0006414722 -0.0058899005 -0.0014770797 0.00658562
0002c0 c0 8e d4 ba cc bd ef 3a c1 a0 5a bb e2 d2 e5 bb
       -0.0016216859 0.0018290817 -0.0033359977 -0.0070136646
0002d0 5c 61 e6 ba 8d 21 e8 ba da 3e b4 bb 82 4b 4d 3b
       -0.0017576623 -0.0017710194 -0.0055006566 0.0031325524
0002e0 b5 91 e2 bb 6a 47 4d bb e0 3c 19 bc df e2 cd 3a
       -0.0069143423 -0.0031323084 -0.009352893 0.0015707872
0002f0 5b 5e a3 39 50 79 f4 b9 83 a4 77 bb 24 eb 6f 3b
       0.00031160083 -0.00046629691 -0.0037787266 0.003660866
000300 45 35 96 bb d9 5b e4 3a e1 f5 54 3a db bd db 3b
       -0.004583987 0.0017422392 0.0008123797 0.006705982
000310 10 bb 91 bb 59 aa 97 bb fb 6e 52 bc a1 fd a7 ba
       -0.0044473484 -0.0046284613 -0.012843843 -0.0012816676
000320 11 f2 2f 3b 56 d3 0d bb 75 18 9a bb fc 6b 47 bb
       0.0026847164 -0.0021640859 -0.0047026225 -0.0030429354
000330 a2 d0 03 3b d7 f1 ed ba 05 1e d0 b9 bc fb 67 bb
       0.0020113369 -0.0018153739 -0.00039695218 -0.0035397848
000340 36 38 b4 39 ff ab 29 b9 57 c5 23 bb 9a c2 7f 3b
       0.00034374156 -0.0001618117 -0.002498945 0.0039025904
000350 4d d7 ce ba 9b ae 3b 3b 07 2b 50 bb 3e b5 06 bb
       -0.0015780717 0.0028638009 -0.0031763928 -0.0020554806
000360 1b ef f9 3a a0 43 58 bb 8c a6 48 3a 84 63 73 bb
       0.0019068451 -0.0032999292 0.0007654212 -0.0037138173
000370 a8 18 e9 3a 72 69 73 ba 6c 96 97 bb 99 b6 66 3b
       0.0017783837 -0.0009285427 -0.004626086 0.0035204052
000380 48 2b e3 ba 97 ee c3 3a b5 5c a8 ba 1d 62 d9 bb
       -0.0017331624 0.0014948425 -0.0012845012 -0.0066340105
000390 50 7d 95 39 d2 ab b7 bb ae 5b 8a 3a 0c 89 98 bb
       0.0002851286 -0.0056051994 0.0010555887 -0.004655009
0003a0 87 61 9e ba d1 12 ac ba 39 ae b8 bb 7f 51 ab 39
       -0.0012083509 -0.0013128166 -0.0056360033 0.0003267638
0003b0 a5 00 e4 b9 df 3a d6 3a 44 5b bb bb b9 e5 f3 ba
       -0.0004348803 0.0016344449 -0.005717667 -0.0018607891
0003c0 19 fc 76 3a 69 e4 5e 3b 4b b5 88 bb 00 8d 5a bb
       0.0009421721 0.0034010655 -0.0041720024 -0.0033348203
0003d0 43 c3 60 3b c3 eb 61 3b da b8 4b bb 7e aa d4 3b
       0.0034296073 0.00344728 -0.0031085522 0.006490051
0003e0 4b da 9e bb 2b 7f 86 3b 5d 97 53 3c 1f f2 db bb
       -0.0048478 0.004104515 0.012914506 -0.0067122127
0003f0 b5 0f 4e bb 46 5c cf bb 80 69 fe 3b f4 ec 43 bb
       -0.0031442468 -0.0063281385 0.0077640414 -0.0029895874

actor.0.bias f4 [256]
000000 42 da ea b9 d9 7a 6a b9 28 e6 04 ba 84 46 d7 3a
       -0.00044794573 -0.00022361743 -0.00050696963 0.0016424214
000010 96 da b0 ba ec c7 33 bb cf 53 cf 3a 7b 1c f9 3a
       -0.0013492878 -0.0027432395 0.0015817824 0.001900568
000020 8a 5f e1 b8 de 94 e0 ba 6f 6f 4b bb f0 8a 45 bb
       -0.000107466316 -0.001713421 -0.0031041761 -0.0030142628
000030 c1 71 98 ba 61 66 5d 3a 42 56 2e 3a ef fc 4f 3b
       -0.0011630581 0.00084457366 0.00066504267 0.0031736454
000040 dd 23 5f 3a 2a b4 62 ba bf 64 26 b9 94 48 09 39
       0.0008512119 -0.00086480624 -0.00015868524 0.00013092376
000050 1a 45 a2 3c aa 30 b4 ba 64 6d ff ba bc 07 cb ba
       0.01980834 -0.0013747413 -0.0019487557 -0.0015489976
000060 33 e2 ad bd 8c 64 dd ba b1 8c 1c 3a 88 fd 89 3a
       -0.0849041 -0.0016890927 0.00059718924 0.0010527829
000070 5d b9 f3 ba b4 c3 f4 b9 b9 36 a3 3a 15 e0 2a ba
       -0.0018594671 -0.00046685117 0.0012452222 -0.0006518376
000080 97 73 ad bd 87 db 5a b9 82 10 d0 3a 57 1c 8b ba
       -0.08469313 -0.0002087188 0.001587406 -0.0010613304
000090 a7 d0 19 bb 6a 33 01 3a d6 88 94 3a f5 cd d1 3a
       -0.0023470314 0.0004928621 0.0011332284 0.0016006815
0000a0 26 1d c6 b9 3b 60 51 3b 4e c0 bf 3a 0a 0d c9 3a
       -0.0003778722 0.0031948227 0.0014629455 0.0015338969
0000b0 14 7a b8 ba fc e8 cc ba 6f 83 d8 ba e2 01 fe ba
       -0.0014074468 -0.00156334 -0.0016518662 -0.0019379223
0000c0 df bb d5 ba 84 8a 28 bb 49 70 e7 3a 07 ff 29 bb
       -0.00163066 -0.0025717327 0.0017657365 -0.0025939362
0000d0 32 2d 91 b9 ae 73 44 bb 4c 02 a2 b8 7b 0e 02 bb
       -0.00027690228 -0.0029976177 -7.72519e-05 -0.0019845057
0000e0 08 dc 1b bb f5 2a 9b 3a 90 69 e9 ba 71 2b f3 3d
       -0.0023782272 0.0011838364 -0.0017807949 0.1187352
0000f0 f2 b7 9f ba f9 d9 ee 3a bd 01 bf bd 7f dc d1 3a
       -0.0012185557 0.001822292 -0.093265034 0.0016011148
000100 fc a8 2c 3d 93 52 ba 39 35 dd 03 bb b8 11 36 bb
       0.042153344 0.00035538207 -0.0020120863 -0.0027781557
000110 4a 9b f0 ba ab 4f 9e 39 dd a0 5e bd 48 16 b3 b9
       -0.0018356827 0.00030195466 -0.05435263 -0.0003415814
000120 cd 27 2a 3a 50 5a a8 38 d2 f9 7a 3a 7b 23 4b 3a
       0.0006490916 8.027686e-05 0.00095739693 0.00077491225
000130 31 83 84 ba a2 6d 4c 3b 6c 10 4e ba 91 43 44 ba
       -0.0010109899 0.0031193276 -0.00078607234 -0.0007486875
000140 c2 97 42 3b 92 7d 90 39 c8 0a 05 ba 41 e2 c3 3a
       0.0029692505 0.00027559377 -0.0005075154 0.0014944748
000150 c9 b9 cd 3a e4 8e 53 3a ee e4 dc 39 7f 4f 65 ba
       0.0015695627 0.00080703036 0.00042132236 -0.00087475026
000160 e6 3e 1e 3a bc 2f 1b b9 fc 4b f2 39 0c 4c b4 ba
       0.0006036594 -0.00014799734 0.0004621445 -0.0013755574
000170 d8 ff 0d 39 ee dc 16 bb af 6b 98 b9 e9 da 23 ba
       0.00013542117 -0.0023019868 -0.0002907193 -0.00062505767
000180 ff 7d 90 b8 46 68 cc ba 75 85 2f bd b6 6d 7f ba
       -6.889924e-05 -0.0015595041 -0.042851884 -0.0009743826
000190 c9 54 6f b9 e8 1b 7f ba 52 d0 17 3b a6 9f 99 ba
       -0.00022824401 -0.00097316364 0.002316494 -0.0011720553
0001a0 48 a9 f1 ba fa de 9d 3a 0a 35 df 3a 8f 61 18 39
       -0.001843729 0.0012044602 0.0017029357 0.00014532193
0001b0 9a de 8b bd ce 53 e9 3a ec 56 30 3b 7c a6 08 bb
       -0.06829567 0.0017801465 0.0026907278 -0.0020851186
0001c0 cf 40 1b bb 55 09 9b bd d6 fb cc 3a 7d 88 2f 3b
       -0.0023689752 -0.07570139 0.0015639018 0.0026784234
0001d0 17 51 99 bd 9a 7d 80 3a 54 d1 17 39 57 7f 50 3b
       -0.0748617 0.0009803057 0.00014478463 0.0031814182
0001e0 42 f4 ed 3a 7a 17 e5 3a a2 f6 98 39 9e 2a 57 ba
       0.001815446 0.001747831 0.00029175455 -0.00082079496
0001f0 7c 20 b8 ba e1 97 87 39 67 f4 06 3b ba 52 f1 ba
       -0.0014047767 0.00025862365 0.0020592452 -0.0018411495
000200 a3 4f 17 b9 27 fe 96 ba e2 5f 79 3a f6 35 21 ba
       -0.00014430149 -0.0011519835 0.0009512884 -0.00061497034
000210 2c 59 50 38 b0 fc 46 ba 35 4c d7 38 53 a9 1c bb
       4.9674112e-05 -0.0007590754 0.000102661936 -0.0023904636
000220 4e 1a 92 ba 45 ed 1e ba 66 18 d4 ba 4e d3 03 bb
       -0.0011146755 -0.00060625776 -0.0016181588 -0.002011496
000230 25 0a 6b ba 20 91 17 3b 83 ee 30 3b 7a ba 25 3b
       -0.000896605 0.0023127273 0.0026997633 0.002528815
000240 87 e1 ad 39 4e fe a8 ba 09 14 01 3b c5 5c 12 3c
       0.00033165162 -0.0012893172 0.001969578 0.008933251
000250 56 a9 03 be 5b 35 df 3a ef 32 5e bd 25 69 18 3b
       -0.12857565 0.0017029451 -0.054247793 0.002325603
000260 8c 7f 3b 3c 06 92 65 3b e1 cf 04 3b 08 0d a1 3a
       0.011443984 0.0035029664 0.0020265507 0.0012287209
000270 8d bb f7 ba b0 37 fd b9 08 77 34 ba 1b b5 b5 3a
       -0.0018900499 -0.0004829741 -0.0006884192 0.0013863178
000280 32 9b 4b b8 b0 93 d3 3d 81 9d e9 b9 21 34 b1 bc
       -4.854351e-05 0.103309035 -0.00044558573 -0.021631302
000290 e0 cc 4f ba 2c cd 27 3b e4 a1 0f 38 c4 02 fc bd
       -0.0007926952 0.002560447 3.424463e-05 -0.12305215
0002a0 86 0b 01 bb c7 5b 66 38 5f d8 6f b7 27 99 62 bb
       -0.0019690706 5.4921748e-05 -1.4295888e-05 -0.003457615
0002b0 6f 2e 97 ba 3e 9b af ba 40 f6 0c bb a5 64 e9 ba
       -0.0011534224 -0.0013397706 -0.002150908 -0.0017806484
0002c0 e9 ec 99 ba 5b b5 89 3a 45 b0 05 3a d9 b1 e9 3a
       -0.0011743578 0.0010506319 0.00050998136 0.0017829492
0002d0 b0 11 1e be a7 c4 fc ba b9 7b 56 3a df 15 4f 3a
       -0.15436435 -0.0019284681 0.0008181888 0.00078996824
0002e0 ec 9e 5f 39 39 ba 07 bb 03 17 d3 39 f7 ee e7 ba
       0.0002132614 -0.0020710363 0.000402622 -0.0017695118
0002f0 bc 8e 4e 39 93 f9 85 39 1a e1 41 39 e6 f0 a9 ba
       0.00019698864 0.00025553684 0.00018489771 -0.001296547
000300 5a 70 05 bb 97 c1 ad ba e9 7d 6d ba 17 10 8b 3a
       -0.0020361156 -0.0013256547 -0.00090595946 0.0010609654
000310 b4 f3 90 bb b0 63 36 be 60 14 14 bb 8c 09 39 bb
       -0.004423583 -0.17811465 -0.0022595152 -0.002823445
000320 34 98 66 bc 8b f8 e7 3a 0b 29 12 bb 92 75 0f bb
       -0.014074374 0.0017697973 -0.0022302296 -0.0021890146
000330 82 e2 99 bd 1f 41 cc ba 19 82 e4 3a 89 02 27 38
       -0.07513906 -0.0015583372 0.0017433792 3.9818264e-05
000340 03 e7 33 bb 64 f9 a6 bb 1a 87 0a b9 02 a5 21 3b
       -0.0027450926 -0.0050956476 -0.00013211035 0.0024665003
000350 db af 58 bd b7 fc a1 3a 4d de 1f bb 2b d3 0a bb
       -0.052902084 0.001235864 -0.0024393976 -0.0021182995
000360 64 f4 fb ba 16 99 5c ba fd 08 23 3b 72 04 d5 b7
       -0.0019222614 -0.00084151456 0.0024877184 -2.5393649e-05
000370 62 a7 1e 3b 25 a1 04 bd e7 3d 43 3a 8e 83 44 3d
       0.0024208655 -0.032380242 0.0007447884 0.047977023
000380 b9 77 d5 ba 4d f8 00 b9 90 6b 76 b4 30 fa fe 3a
       -0.001628629 -0.0001229953 -2.2949666e-07 0.0019453224
000390 a1 d9 d5 bb 8d e1 37 bb 80 73 5d 3a d6 d6 b2 ba
       -0.0065261875 -0.0028058023 0.0008447692 -0.0013644348
0003a0 2e 35 b8 b9 21 0a 8b ba 8b 37 3a bb df 6c c0 ba
       -0.00035134837 -0.0010607877 -0.0028414454 -0.0014680884
0003b0 71 19 24 3b 81 90 df b7 31 0a e5 38 99 30 a0 3c
       0.0025039578 -2.6650961e-05 0.00010921469 0.019554423
0003c0 69 8d bd 3a 9b 38 2a bb f6 7e 69 bd 74 0d 55 ba
       0.0014461699 -0.002597368 -0.057005845 -0.000812731
0003d0 7a 3f 2c 39 b3 53 9b ba 6d c8 2b bc ed 14 1b 3a
       0.00016426845 -0.0011850506 -0.010484797 0.0005915899
0003e0 2b 2d 87 39 82 c2 c0 bd c7 8e d2 bc d2 97 62 b9
       0.0002578286 -0.094120994 -0.025702847 -0.00021609597
0003f0 21 10 29 3a c4 91 02 3b 93 de 17 3b d5 2f 0e bb
       0.0006449242 0.001992331 0.0023173436 -0.002169599

actor.2.weight f4 [128, 256]
000000 b1 7e da 37 a4 99 18 3a e9 a3 70 39 61 03 5d 3a
       2.604662e-05 0.0005821234 0.00022949245 0.00084309845
000010 84 13 47 ba 2e f0 1d ba e9 41 f2 39 6b 6f dc 39
       -0.00075941556 -0.0006024864 0.00046206944 0.00042044683
000020 6a 6e 53 b8 71 e1 f9 37 e3 f4 a9 ba 10 1b d3 3a
       -5.040915e-05 2.9788092e-05 -0.0012966659 0.0016106088
000030 97 6c 01 ba b4 9a 88 3a a8 31 11 3a 22 1c c8 3a
       -0.00049371406 0.0010422082 0.00055387104 0.0015267173
000040 16 45 54 3a c5 7c cc b9 98 3e ad b9 00 50 63 39
       0.0008097453 -0.00039002873 -0.00033043767 0.0002167821
000050 80 28 11 3b 23 db f6 38 4e 3e 13 ba cf 9e 0c ba
       0.0022149384 0.000117710115 -0.0005616889 -0.00053642405
000060 82 4b 90 3a 40 3b 89 39 af 95 3a 3a 41 70 64 3a
       0.0011008831 0.0002617482 0.00071176415 0.0008714237
000070 fa 98 d3 b9 15 a2 07 3a 4e 47 0b 39 23 17 9f b9
       -0.00040359033 0.00051739934 0.00013282636 -0.00030344081
000080 91 3d 5d bb 63 08 58 38 f9 e7 18 3a 1e 2c 8f b9
       -0.003375862 5.1506224e-05 0.00058329065 -0.00027307955
000090 45 dc a1 ba e7 f6 6f 39 f9 a6 83 39 a6 62 43 3a
       -0.0012348971 0.00022884794 0.0002511067 0.00074533594
0000a0 72 4e 10 b9 5b b2 93 3a 1b 8e 8a 3a 10 10 0a 3a
       -0.00013762133 0.0011268364 0.0010570915 0.0005266676
0000b0 89 52 7f 39 2b 7e 82 b9 52 29 e8 b9 80 06 ed b8
       0.00024349442 -0.00024889535 -0.00044281274 -0.000113022514
0000c0 d7 80 5f ba 7d ca 51 ba e6 6b 72 3a f9 3b 41 ba
       -0.00085259735 -0.00080028904 0.00092476455 -0.00073713023
0000d0 80 1e 90 38 c8 aa 51 ba 51 0f 04 3a af 32 52 38
       6.872136e-05 -0.00079981657 0.0005037683 5.0115104e-05
0000e0 46 de 0b ba c5 a1 4e 39 d9 aa ce b9 76 b4 00 3b
       -0.00053355505 0.00019705955 -0.00039418673 0.0019638813
0000f0 aa d3 33 b8 59 22 0a 3a 8f b1 77 3b e4 a0 5e 3a
       -4.2874053e-05 0.00052694004 0.0037795042 0.00084926025
000100 20 9a 62 bb 85 90 2d 3a b8 2f 1a ba e3 fe 7a ba
       -0.003457673 0.00066209614 -0.00058817444 -0.0009574724
000110 59 30 5f b9 fc 1e 43 38 ad 34 27 3a 22 2d 5f b9
       -0.00021284948 4.652048e-05 0.0006378394 -0.0002128375
000120 d9 ba 88 b7 fc d7 93 3a b5 3d c4 38 de d5 19 39
       -1.6299471e-05 0.0011279578 9.357502e-05 0.00014670889
000130 9f 06 8f b9 cf d9 b9 3a 2e 7f cf b9 6e 79 f3 b8
       -0.0002728002 0.0014179292 -0.00039576873 -0.00011609761
000140 3d c6 0c 3b 0c 27 00 3a 29 97 47 ba fd cf 70 39
       0.0021480464 0.0004888631 -0.0007613772 0.00022965665
000150 0e 17 5e 3a 55 f6 02 3a 56 ff c4 3a c9 81 17 39
       0.00084720633 0.0004995813 0.0015029709 0.00014448831
000160 9c 6f 06 39 54 97 b7 39 df 84 06 3a 73 61 43 3a
       0.00012820814 0.00035017228 0.00051314937 0.0007453181
000170 0b 67 0e 39 8a 32 b8 ba 5f 15 a2 39 4b 68 95 39
       0.00013580562 -0.0014053148 0.0003091497 0.000284972
000180 3e b0 e8 39 30 56 39 b9 ca fe 0b bb 40 e7 d7 b9
       0.000443818 -0.00017675082 -0.0021361583 -0.0004118029
000190 fc 31 8f 3a b2 d9 84 b9 4b 08 b1 39 41 14 88 b6
       0.0010924931 -0.00025339198 0.0003376625 -4.0554737e-06
0001a0 71 68 28 b9 a1 7a a0 3a 2f da 7e 3a fb 1e 98 39
       -0.00016060636 0.0012243578 0.0009721843 0.00029014781
0001b0 c7 08 89 38 0a 07 85 39 9d 63 4a 3a ac a6 58 ba
       6.534304e-05 0.0002537298 0.0007720532 -0.0008264582
0001c0 a9 be 4d ba f7 6d 7b ba a5 16 6c 3a 37 6c d3 39
       -0.000784854 -0.0009591276 0.000900606 0.00040325682
0001d0 51 91 46 39 cb be 3c 3a 00 b2 0f 39 ad 54 89 3a
       0.00018936886 0.0007200061 0.00013703853 0.0010477506
0001e0 06 ff 3b 3a 5b 92 12 3a 92 93 15 ba 47 0b 95 b8
       0.00071714853 0.00055912667 -0.00057058886 -7.106974e-05
0001f0 e7 eb e6 b8 be 30 be 39 8c e6 c6 39 20 14 a8 b9
       -0.00011011195 0.0003627594 0.00037937274 -0.0003205845
000200 bc 80 b4 39 e0 9f 20 ba 3a bf 4f 3a b5 bb 27 39
       0.0003442819 -0.0006127339 0.00079249183 0.00015996287
000210 3d dc 0a 39 3d d2 e5 38 64 ed 76 39 3a 90 13 ba
       0.0001324275 0.00010958731 0.00023548823 -0.00056290964
000220 14 cf 65 b9 99 1f 19 b9 8d 94 01 ba ed 34 e8 b9
       -0.00021916284 -0.00014602988 -0.0004943095 -0.0004428992
000230 2c c6 07 b9 ff 28 e0 39 9c 06 93 3a b2 0c e7 3a
       -0.00012948428 0.00042755154 0.001121718 0.0017627685
000240 62 f8 09 3a 9f 8e b6 b9 3a be 09 3a 65 08 63 3a
       0.0005263147 -0.00034820006 0.0005254481 0.00086606137
000250 97 a2 14 b9 49 6a 64 3a 67 c2 6e ba 43 9d c8 39
       -0.0001417495 0.00087133475 -0.00091079477 0.00038264142
000260 1e 8d b8 ba 99 c4 45 3a 0c 2a 21 3a a4 b0 2a 38
       -0.0014080142 0.0007544249 0.0006147928 4.0695668e-05
000270 55 4a c7 b9 d0 c8 9b 39 76 45 de 38 ea 78 51 3a
       -0.0003801162 0.0002971352 0.00010598723 0.0007990735
000280 eb bf 64 b9 df 62 fd ba 68 bc 3f 39 3e bd cb 39
       -0.0002181527 -0.0019331834 0.00018285366 0.00038860174
000290 8f f1 94 37 62 29 9e 3a 7a 14 9f b9 0f 0c b6 ba
       1.775546e-05 0.0012066776 -0.000303421 -0.0013889092
0002a0 b8 e4 14 ba 62 30 6d 38 8a 79 7c 39 e4 a1 9f b9
       -0.00056798337 5.6550263e-05 0.0002407787 -0.0003044746
0002b0 77 33 38 3a af 13 ec b9 2c 6a 9e b8 e1 8c c0 b9
       0.0007026712 -0.00045028093 -7.553803e-05 -0.00036726057
0002c0 4c a0 de b9 89 d8 38 39 f3 7b 8d 39 51 a0 6d 3a
       -0.0004246257 0.00017628273 0.00026985965 0.00090647215
0002d0 b0 6f ae bb 3f 31 c9 b9 53 fb d1 38 b0 3a 25 3a
       -0.005323373 -0.000383744 0.000100127094 0.00063029956
0002e0 3a 6d 6a 38 05 04 e2 b9 38 99 2e b8 d9 ef c8 b9
       5.5891673e-05 -0.00043109074 -4.162753e-05 -0.00038325673
0002f0 9d 44 31 3a 4f bc d3 39 cc 6d 77 3a 85 6a 11 b9
       0.00067622383 0.00040385357 0.0009438663 -0.00013867959
000300 b4 ee 17 ba 70 2e b2 b9 5b 1c 7a b9 ba eb be 38
       -0.00057957624 -0.00033985404 -0.00023852421 9.1038135e-05
000310 f0 77 3c ba e9 31 cc 3a 1f 27 e2 b9 54 3b 86 b9
       -0.0007189503 0.0015578839 -0.00043135227 -0.00025602675
000320 62 0d c7 ba 3b 82 8a 3a b3 64 36 ba 9b 2f ae b9
       -0.0015186484 0.0010567376 -0.00069577544 -0.00033223335
000330 41 19 53 bb 1c 2e 0d 39 1c a2 dc 39 d2 7b 43 39
       -0.0032211097 0.00013463985 0.0004208245 0.00018642776
000340 88 23 dd b9 e9 d7 d4 ba e4 13 75 38 9b 74 77 3a
       -0.00042178878 -0.0016238663 5.8431076e-05 0.0009439678
000350 3e 3a 71 bb e3 1f 58 3a 87 8e 4b ba 42 5e 66 b9
       -0.0036808397 0.00082444976 -0.00077650737 -0.00021969623
000360 48 48 86 ba 87 99 d0 b9 8a 4f 30 3a 46 89 89 3a
       -0.001024493 -0.00039787238 0.00067257194 0.0010493181
000370 d7 05 85 3a ef d4 80 3b 3b fe 24 ba 49 75 31 bb
       0.0010148835 0.0039316337 -0.0006293987 -0.0027077964
000380 13 08 c1 b9 43 cb 9e 37 2f e2 ed 39 85 4d af 3a
       -0.00036817844 1.8929719e-05 0.00045372683 0.0013374543
000390 3d 1a ab 3a 75 96 8c ba cb cb 19 3a 66 c2 78 b9
       0.0013054084 -0.0010725992 0.00058668543 -0.00023723542
0003a0 39 c2 15 b7 bc 6b ab b9 3c e0 2b ba a3 f2 aa b8
       -8.926313e-06 -0.0003269593 -0.0006556546 -8.151426e-05
0003b0 55 0a 7b 3a 5b f0 05 b9 4a c4 d6 39 59 0d 1b 3a
       0.000957643 -0.00012773408 0.00040963507 0.000591477
0003c0 68 48 2a 3a 89 00 96 ba 50 05 c5 b9 d1 d3 3d b9
       0.0006495775 -0.0011444251 -0.00037578726 -0.00018103352
0003d0 9e ab 51 39 05 41 45 ba 98 c6 95 ba 71 d5 b3 39
       0.00019995726 -0.0007524642 -0.0011426983 0.00034300567
0003e0 f3 e3 68 38 6a 98 dc b7 d1 db eb 3a 59 45 86 39
       5.5525405e-05 -2.6297017e-05 0.0017994588 0.0002561014
0003f0 46 0e 0b b8 7a d7 18 39 f4 19 80 3a 23 be 8f ba
       -3.3153476e-05 0.00014576121 0.000977336 -0.0010966699

actor.2.bias f4 [128]
000000 73 e1 62 ba 74 b5 df b9 f5 d4 65 ba 53 dc 7c bb
       -0.00086548104 -0.00042669068 -0.000876739 -0.0038583472
000010 ad 45 5e b9 d6 f4 19 ba ef f5 45 3d 77 45 42 37
       -0.00021197526 -0.000587297 0.048330244 1.1579475e-05
000020 fa 49 68 ba 11 6b 1a ba cc ce f9 b9 77 5e 0a ba
       -0.0008861121 -0.0005890588 -0.00047647057 -0.00052783586
000030 a6 ec f0 3a 84 b0 a8 3a 6c 36 34 be 45 fe 20 bb
       0.0018381074 0.0012869989 -0.17598885 -0.002456562
000040 15 6c e8 39 2f 15 d9 39 48 30 e5 3a 93 7a f8 ba
       0.00044331016 0.00041405248 0.0017485702 -0.0018957428
000050 65 e9 99 ba 32 86 1d bb 4a 6a 74 3a a1 fd 6f 39
       -0.0011742531 -0.0024036285 0.00093236996 0.000228873
000060 f2 81 6c be b0 70 8a b8 6b 9b 11 bb 6f 67 ef 39
       -0.23096445 -6.6013425e-05 -0.002221788 0.00045662696
000070 6e ec 82 3a d7 ec 5b be eb 2d 15 3d 68 22 d2 39
       0.0009988674 -0.21477066 0.036420744 0.00040079956
000080 4b 60 84 38 1e c6 9d ba 5b 6e 61 ba 48 e2 6c 39
       6.3121865e-05 -0.0012037193 -0.0008599513 0.0002259101
000090 4a 5e fe b9 60 8b f7 39 5d 38 7a 39 cf cf 14 ba
       -0.00048516906 0.00047215354 0.00023862855 -0.0005676718
0000a0 97 74 70 3a bb 4b cd b8 c0 f1 bf 39 9f d3 90 ba
       0.00091726467 -9.789268e-05 0.00036610477 -0.0011049396
0000b0 27 ba dc ba 7e 86 31 b9 b7 83 2b bb ed 96 59 be
       -0.0016840146 -0.00016930138 -0.0026171037 -0.2124898
0000c0 0c 7c 04 ba 5f 3b 18 bb 09 9f 3e 3a 2d 93 8b 39
       -0.0005053885 -0.0023228747 0.0007271623 0.000266218
0000d0 78 cd 1c bb dd 16 1f 3a 67 31 85 ba a8 de 28 3b
       -0.002392618 0.00060687755 -0.0010161818 0.002576748
0000e0 80 49 3f 3a c2 b6 f0 ba 34 50 0e 3a ca ee 62 bb
       0.0007297024 -0.0018365013 0.00054288213 -0.0034627193
0000f0 36 cd 05 bb 81 3e 03 bb 88 53 08 ba 3b 5e 83 ba
       -0.0020416505 -0.002002627 -0.00052004354 -0.001002259
000100 6b 73 ff b9 1c da f4 ba 18 42 8b ba 8d 78 f8 bd
       -0.00048723383 -0.0018680724 -0.0010624556 -0.12132368
000110 7e 35 a2 39 46 ad 4a b9 fc ec 84 ba fb 22 b3 39
       0.00030938903 -0.0001932877 -0.0010141428 0.00034167603
000120 c4 50 95 ba de ba 17 3a c6 14 0e 3a 5b 65 a0 be
       -0.0011391868 0.0005788038 0.00054199656 -0.31327328
000130 02 08 ab ba 34 8d cf ba 06 fc db ba 53 ff 7d ba
       -0.0013048651 -0.0015834928 -0.0016783483 -0.00096892304
000140 f5 ef dd b9 57 ef fc bd 4b bd cc ba 15 8b 88 ba
       -0.00042331187 -0.12350338 -0.0015620379 -0.0010417426
000150 57 ef 92 ba 9c 9a 1d ba 93 0e 82 3a fa 0b c7 b8
       -0.0011210245 -0.00060121133 0.0009922556 -9.49129e-05
000160 7b 4b e8 ba 43 36 0a 3a 19 37 2b 3a c6 d0 49 ba
       -0.001772269 0.0005272368 0.00065313425 -0.0007698651
000170 b0 b5 b3 ba 19 3f 0c 3a 89 7c 8e 39 04 3f e7 39
       -0.0013710763 0.00053499785 0.00027177137 0.00044106704
000180 3c 79 f1 b9 b0 bf 48 ba a3 30 b6 39 4d bd 36 ba
       -0.0004605743 -0.0007657958 0.00034749982 -0.0006970957
000190 73 79 e6 ba cc 0a 34 ba fc ff 83 39 be f4 ef 39
       -0.0017583802 -0.0006868064 0.0002517699 0.0004576798
0001a0 f2 b0 2f bb 08 a9 dd ba 3a b3 bb ba 89 da a6 3a
       -0.0026808348 -0.0016911337 -0.0014320381 0.0012729923
0001b0 44 55 95 ba 6d 45 58 3a af 02 2b bb 02 9a 50 ba
       -0.0011393209 0.00082500913 -0.002609413 -0.0007957519
0001c0 3c ec 7d ba 67 b0 b0 ba 29 b5 c1 ba 6b 81 3b 3a
       -0.0009686386 -0.0013480306 -0.0014778721 0.00071527687
0001d0 e5 df f5 39 99 12 f1 38 af 0d 81 ba f7 a2 90 ba
       0.00046896856 0.000114952396 -0.0009845997 -0.0011034895
0001e0 b8 7c 49 3a 47 57 89 ba 50 39 03 bb 6c aa df 3a
       0.0007686126 -0.0010478281 -0.0020023175 0.001706434
0001f0 8d a8 9e ba f6 a0 1c b9 bb 7c 4c ba 73 8c c3 ba
       -0.0012104675 -0.00014937282 -0.0007800569 -0.0014919176

actor.4.weight f4 [3, 128]
000000 a7 f7 13 3a 40 e5 06 3a 7a e2 26 3a 6c 56 60 ba
       0.0005644508 0.0005145855 0.0006366145 -0.00085578
000010 30 ea 80 ba ad 57 6e ba fd fe 9d 3e d4 c9 27 b9
       -0.0009835418 -0.0009092044 0.30858603 -0.00016001548
000020 d2 1a bb 38 d1 ed 35 b7 57 8a 04 3a 50 b2 06 3a
       8.9218505e-05 -1.0843812e-05 0.00050560146 0.0005138265
000030 82 66 0e 3a a6 77 08 b9 80 a3 99 3e 44 63 86 b9
       0.0005432145 -0.00013014543 0.30007553 -0.0002563243
000040 9d 39 08 ba c9 d4 22 b9 28 d8 53 3a e3 0b c3 b9
       -0.00051965733 -0.00015528793 0.0008081221 -0.00037202155
000050 1e 0a b7 39 b1 d9 08 ba d5 f9 40 39 64 7b fb b9
       0.00034912018 -0.0005220427 0.00018403617 -0.00047966384
000060 eb 33 a4 3d cd 85 05 ba 7d fa 09 b9 ce ae c8 b9
       0.08017715 -0.0005093485 -0.00013158652 -0.00038277212
000070 29 9b 59 39 d2 32 fc 3c 12 80 17 be 16 14 2f b9
       0.00020752534 0.030785952 -0.14794949 -0.00016696783
000080 55 85 35 3a 0c 97 f2 39 22 5b 28 3a 86 cd 3c b9
       0.000692447 0.00046270376 0.0006422271 -0.0001800564
000090 58 15 90 39 56 ff 2e b9 9f 49 59 ba e8 6e c5 39
       0.00027481723 -0.00016689053 -0.00082888635 0.000376574
0000a0 5c bc 59 39 3a 44 07 ba f3 20 b7 b8 82 8b 36 3a
       0.00020764902 -0.0005160008 -8.732257e-05 0.00069635373
0000b0 a1 a2 34 3a 94 b5 3c 3a 26 2e 99 b9 16 b2 19 3d
       0.00068906887 0.0007198688 -0.00029216817 0.03752335
0000c0 fa b3 03 3a 54 1f 17 ba 0a 55 10 b9 3a 56 b8 b9
       0.0005024072 -0.0005764861 -0.0001376459 -0.0003515946
0000d0 33 6f 86 ba 9c 91 3c ba ca e1 22 3a 7a 01 40 3a
       -0.0010256529 -0.00071933283 0.0006213455 0.0007324439
0000e0 32 06 fe b9 96 4e cd b7 94 5d 3e ba 8d 4f 33 ba
       -0.0004845127 -2.4474499e-05 -0.0007261869 -0.0006840162
0000f0 7d f0 a1 b9 97 ce 9c ba 19 14 ec 39 e0 df 29 3a
       -0.0003088749 -0.0011963424 0.00045028402 0.00064801984
000100 17 3d 00 3a 32 b6 aa b9 05 05 09 3a 33 5a 34 be
       0.00048919156 -0.00032560673 0.0005226883 -0.17612533
000110 ad dc cc b9 9a 7e 0c b9 56 b8 20 3a 85 55 05 ba
       -0.00039074328 -0.00013398603 0.0006130984 -0.0005086291
000120 35 d7 46 3a 7a 73 f6 b9 9f 72 16 ba 11 63 6a 3f
       0.0007585169 -0.00047006813 -0.0005739126 0.91557413
000130 7a 67 55 36 a1 e9 12 39 63 04 b6 b9 5d 78 1f 3a
       3.1799705e-06 0.00014010679 -0.00034717013 0.0006083304
000140 bb 62 8f 39 68 9e 4a bf 21 d5 b2 b9 bf f3 ec 39
       0.00027348645 -0.7914796 -0.000341096 0.00045195033
000150 1d c5 8a 39 a9 ca 1d 3a 5a 76 59 39 39 a8 7d ba
       0.00026468272 0.00060192734 0.00020738822 -0.0009676251
000160 44 2e a7 b9 d8 b9 ae 37 c8 04 1e ba cc f3 1b 3a
       -0.00031887193 2.0828957e-05 -0.0006027934 0.00059491093
000170 d8 10 9a 39 0f 14 3b 36 e1 d4 66 ba 7c af d8 b9
       0.00029385719 2.7876847e-06 -0.0008805525 -0.00041329477
000180 69 35 be 39 46 47 14 3a 58 82 12 b9 89 6d 67 39
       0.00036279418 0.00056563725 -0.00013972202 0.00022070682
000190 48 64 67 b9 b0 b3 1d 3a e0 ea 0e b9 31 8f f9 b9
       -0.00022067234 0.000601585 -0.00013629673 -0.00047599667
0001a0 b2 70 50 ba 86 96 30 39 88 7a 89 39 81 b0 41 39
       -0.0007951363 0.00016840742 0.0002622197 0.00018471667
0001b0 fb f4 01 3a 80 a3 88 b9 73 61 84 b9 6a db 1e 3a
       0.00049574644 -0.00026061758 -0.00025249607 0.0006059917
0001c0 da b4 30 3a 87 70 88 b9 f1 a6 82 39 3b 9b 02 39
       0.0006740816 -0.0002602378 0.00024919913 0.00012455594
0001d0 70 5d 3f ba 1b c7 78 ba 26 5c 3b b9 3b b7 9e b9
       -0.0007299995 -0.0009490118 -0.00017868038 -0.00030272626
0001e0 7e 43 04 ba b6 07 c2 b8 b4 46 28 b9 77 63 43 3a
       -0.00050454575 -9.252077e-05 -0.00016048067 0.0007453481
0001f0 8d 9f a0 39 0a 85 ba 39 1c 7c 1e 3a 19 c6 92 39
       0.00030636453 0.00035575806 0.00060457154 0.00027994884
000200 57 83 44 39 85 53 f3 38 dd 60 05 38 be 01 98 3a
       0.00018740945 0.000116027 3.1799882e-05 0.0011597199
000210 a2 1b 2d 3a cd 54 37 3a cc 0e 70 3e 5f d5 d4 b9
       0.0006603544 0.00069935323 0.23443145 -0.00040594765
000220 09 c3 61 b9 ce c7 fe b8 3e e7 e2 b9 91 17 22 ba
       -0.00021530328 -0.0001214888 -0.00043278368 -0.0006183321
000230 c6 6d b9 39 4b f5 17 ba 63 3f 48 3d 61 38 7e b9
       0.00035367737 -0.00057967444 0.048888575 -0.0002424433
000240 44 ba 40 b8 35 e7 bd b9 21 a0 18 3a 65 6b 90 b9
       -4.594984e-05 -0.00036221152 0.0005822201 -0.00027545835
000250 b8 04 ef b9 31 b3 27 b9 4c 0d 0d 39 b3 e6 78 3a
       -0.00045589148 -0.00015993115 0.00013451761 0.0009494826
000260 36 a9 5f bf a9 99 65 3a 07 eb 7c b9 e0 cc 2c 3a
       -0.8736757 0.0008758554 -0.00024120147 0.0006591808
000270 e4 37 4c 39 67 a6 73 3e e6 27 26 3c 45 0c 32 3a
       0.00019475777 0.23793946 0.0101413485 0.00067919894
000280 26 57 9f 38 b6 c1 c6 b9 ba f0 5d 38 c2 77 dc ba
       7.5979435e-05 -0.0003790983 5.29147e-05 -0.0016820359
000290 19 a5 d2 b9 7b 3a 80 b9 8e e7 c1 39 7f 53 ae b9
       -0.0004017733 -0.00024457634 0.0003698435 -0.00033250076
0002a0 27 50 8d 39 d0 35 74 3a 66 98 f3 b8 04 bb a9 37
       0.00026953334 0.000931588 -0.000116155294 2.0233456e-05
0002b0 54 cd 8b ba 1c 2f 11 38 14 cd 46 b9 79 54 89 be
       -0.0010666051 3.4614568e-05 -0.00018959149 -0.2682226
0002c0 8b 0e 10 ba e1 06 06 ba fc 65 0c 38 72 e0 5a b9
       -0.0005495331 -0.00051127194 3.347358e-05 -0.00020873712
0002d0 9b 74 71 3a e2 37 33 39 43 42 55 b9 50 dc a5 b9
       0.0009210796 0.00017091588 -0.00020337947 -0.00031635398
0002e0 bd 5f a4 b8 d2 05 31 b9 88 31 4c 39 bb 88 6c 39
       -7.837962e-05 -0.00016882204 0.00019473408 0.0002255765
0002f0 da 93 de b9 57 f0 9b 3a 5e da c9 38 5d f7 dd b8
       -0.00042453298 0.0011897188 9.625101e-05 -0.00010584176
000300 eb 57 14 ba be 3f e4 b9 4d 40 2b b9 8a ff 3a 3f
       -0.0005658853 -0.0004353504 -0.00016331785 0.7304617
000310 05 38 44 3a f1 16 2c 3a 7f dd eb 38 4c cb 2d 38
       0.0007485154 0.0006564698 0.0001124693 4.143575e-05
000320 ae 91 de b7 e1 60 ea b8 f6 e0 59 39 09 58 81 bc
       -2.65323e-05 -0.000111760346 0.00020778537 -0.015789049
000330 1e f8 d7 ba 14 5d 53 b9 6f 7b 09 ba 0c 5b 44 b9
       -0.0016477143 -0.00020157202 -0.00052445283 -0.00018725934
000340 fb 9f 02 3a a1 9b a2 bd ab 12 e9 b9 f5 2a 82 ba
       0.00049829454 -0.0793984 -0.00044455132 -0.0009931015
000350 ab 34 fc b9 7a fa 18 ba 10 d0 75 39 57 34 1f 3a
       -0.00048104426 -0.0005835664 0.0002344253 0.0006073168
000360 d2 c2 0c ba 71 e7 45 b9 da bb 69 38 32 29 5c 38
       -0.00053696067 -0.00018873603 5.572648e-05 5.2490454e-05
000370 30 03 cf b9 cf b6 04 ba de f3 d8 39 09 d7 17 b9
       -0.00039484492 -0.0005062641 0.00041380426 -0.00014480589
000380 09 3b e7 39 63 33 2a 39 d3 f8 3d b9 be dc 90 b9
       0.00044103738 0.00016231606 -0.00018117139 -0.00027630286
000390 54 4c cb b9 e0 c4 45 38 4d ff 8e b9 fe 95 d2 b8
       -0.00038776046 4.7151814e-05 -0.00027274564 -0.000100415185
0003a0 53 43 a5 b9 62 49 ae b9 d1 00 b0 b9 7d f5 bf b8
       -0.00031521413 -0.0003324254 -0.00033569944 -9.1533155e-05
0003b0 67 8d f4 b9 e5 cc f0 39 66 e5 bf 39 f7 51 a6 38
       -0.0004664466 0.00045929026 0.00036601274 7.930764e-05
0003c0 d6 cb 5f b7 43 43 01 ba 77 5e b7 b9 a2 f2 59 3a
       -1.3339295e-05 -0.0004930982 -0.00034974862 0.0008314048
0003d0 bd d8 ad 39 13 9d 0d 3a b6 5a 70 38 6a 15 64 38
       0.00033158614 0.0005402129 5.730494e-05 5.437938e-05
0003e0 bd 4a 8c b8 c2 11 36 ba 41 2a 83 b9 e0 8e ab 39
       -6.689641e-05 -0.0006945395 -0.0002501775 0.00032722112
0003f0 66 4a 1e ba 09 36 db b9 59 ee bc 38 88 24 b5 b9
       -0.0006038308 -0.00041811194 9.008934e-05 -0.00034550228

actor.4.bias f4 [3]
000000 49 6a cb bd 6d 7b d2 3b 61 a3 41 be
       -0.09932382 0.006423405 -0.1890998

exp_avg f4 [256, 138]
000000 ed 9a f0 37 41 d1 ab b7 08 97 ad 35 da 61 76 b5
       2.8682372e-05 -2.048223e-05 1.293346e-06 -9.1784534e-07
000010 fc 80 82 36 5c 12 08 38 92 2f bb 35 f0 6a 66 b7
       3.8893177e-06 3.2442025e-05 1.394643e-06 -1.3733967e-05
000020 b9 ad 8c 37 6d b9 98 b7 83 aa b0 b7 63 ca ec 37
       1.6770196e-05 -1.8206158e-05 -2.1060236e-05 2.8227636e-05
000030 c5 a3 07 b7 b0 ec c4 b6 1d c8 5f 37 7f a6 02 b6
       -8.084758e-06 -5.8688092e-06 1.3338428e-05 -1.9468423e-06
000040 3f 0b 0c b7 50 4d 10 37 f4 59 9d b7 65 ef d7 b6
       -8.347269e-06 8.60107e-06 -1.8757746e-05 -6.4353685e-06
000050 5a 69 12 37 4d 75 d6 b6 28 14 0f b7 3d 7a eb b6
       8.726807e-06 -6.3913526e-06 -8.528157e-06 -7.017776e-06
000060 83 4a 55 37 ed 0a 11 37 0d 7f 79 35 ae af 37 b7
       1.2713138e-05 8.645217e-06 9.294461e-07 -1.0948554e-05
000070 d1 5e 6d 36 12 96 9c 36 e6 81 1e 38 6b b1 88 b7
       3.5370942e-06 4.666633e-06 3.7791113e-05 -1.629508e-05
000080 e4 de b2 38 14 d1 ae b7 44 0b a3 b8 8d 02 31 38
       8.529218e-05 -2.0839776e-05 -7.774544e-05 4.2202464e-05
000090 f7 49 b4 b8 0e ae 48 b8 35 4a a3 38 9d fb 57 b8
       -8.596846e-05 -4.7845817e-05 7.786268e-05 -5.1494328e-05
0000a0 be 85 98 b8 75 b2 eb b7 ab e7 8f 37 8f 99 62 b8
       -7.272836e-05 -2.8097284e-05 1.7154807e-05 -5.402561e-05
0000b0 4d bc 30 38 ef de 55 b8 d2 06 54 b8 42 08 a5 38
       4.213704e-05 -5.099078e-05 -5.055109e-05 7.869351e-05
0000c0 8d b9 23 b8 d1 4b b3 b7 59 5e 20 38 c1 73 76 b7
       -3.9035036e-05 -2.1373768e-05 3.823484e-05 -1.4689694e-05
0000d0 6b e1 41 b8 55 38 95 b8 f1 05 b5 b7 24 c1 23 b8
       -4.6224723e-05 -7.115366e-05 -2.1579648e-05 -3.9042105e-05
0000e0 ec 18 ad 38 0b 69 60 b8 29 ce 30 b8 ef 9a 8b b5
       8.253925e-05 -5.350359e-05 -4.215367e-05 -1.0401399e-06
0000f0 3b 89 af b7 c4 05 9d b7 a7 9d 80 38 c6 89 ae b7
       -2.0925529e-05 -1.8718543e-05 6.132881e-05 -2.0806572e-05
000100 3d c5 ce b7 23 4e 93 b7 0c 97 2d b7 e2 6c 5a b7
       -2.464896e-05 -1.756015e-05 -1.0346772e-05 -1.3019164e-05
000110 66 02 56 36 2b d5 82 b7 77 cc 3f b7 fd 45 dc 37
       3.188988e-06 -1.5596472e-05 -1.1432093e-05 2.6258635e-05
000120 de 07 41 b7 f9 57 40 b7 a3 50 9e 37 99 97 99 b6
       -1.1505528e-05 -1.14645745e-05 1.8872617e-05 -4.5774036e-06
000130 63 ad 85 b6 f6 6b a2 37 3c de fa 35 73 5e 0e b7
       -3.9838937e-06 1.9362178e-05 1.869113e-06 -8.48585e-06
000140 38 d0 38 36 0b 96 21 b7 76 03 e3 b6 76 88 ad 37
       2.7539336e-06 -9.631282e-06 -6.76553e-06 2.0686752e-05
000150 5a 7f 5e b7 59 98 7c b5 a5 2d 8d 37 b3 c2 e8 35
       -1.32618825e-05 -9.409901e-07 1.6829765e-05 1.7342012e-06
000160 54 f6 e4 b6 e3 12 7b 37 3d c2 d2 36 11 f6 09 b7
       -6.823606e-06 1.4965163e-05 6.2811e-06 -8.223128e-06
000170 45 38 53 37 a6 83 62 b7 5b 31 85 b7 05 17 f2 37
       1.2589681e-05 -1.35013015e-05 -1.5877818e-05 2.8859367e-05
000180 bb 4c 61 b7 f2 9f ac b6 c0 9e 6e 37 d2 b4 26 b5
       -1.342891e-05 -5.1446195e-06 1.4222867e-05 -6.2102947e-07
000190 ec ea 24 b7 86 a0 1a 37 bb bc 61 37 ba b6 ee 35
       -9.829859e-06 9.21649e-06 1.3454987e-05 1.7785562e-06
0001a0 2b ff 08 36 41 e4 c1 35 f2 9d a8 b6 6c a0 f1 36
       2.0414107e-06 1.4446051e-06 -5.0251774e-06 7.2010353e-06
0001b0 f9 a9 20 b7 b2 e0 dc b5 bb c9 37 b5 ef 18 10 37
       -9.576318e-06 -1.6456672e-06 -6.846637e-07 8.588874e-06
0001c0 ac 1a 5a 36 61 fa 02 36 57 d0 81 37 53 f4 32 36
       3.2500056e-06 1.951725e-06 1.5475014e-05 2.6666282e-06
0001d0 69 b6 8c 37 ad ab 62 36 aa 1b 94 b6 39 5c 41 b5
       1.6774242e-05 3.3776553e-06 -4.4139642e-06 -7.2032304e-07
0001e0 3d 05 ee 35 25 59 eb 36 f3 79 88 36 54 35 43 36
       1.7733906e-06 7.0139236e-06 4.0673126e-06 2.9088305e-06
0001f0 d9 d9 20 b6 e6 aa 0b b7 5a d7 cb b4 6e 20 35 b7
       -2.3968662e-06 -8.324836e-06 -3.7968385e-07 -1.0795991e-05
000200 15 62 ef 36 28 08 4f b7 8c be 16 b7 92 23 e3 36
       7.1341733e-06 -1.23400605e-05 -8.985062e-06 6.769268e-06
000210 d0 f4 b1 36 76 91 3b b5 12 f3 95 b7 11 f0 a9 b5
       5.303511e-06 -6.98746e-07 -1.7875373e-05 -1.266135e-06
000220 97 54 e9 35 c7 f5 56 b7 99 cb c5 b7 8f ac 07 b7
       1.7384472e-06 -1.28126185e-05 -2.3579038e-05 -8.086804e-06
000230 1a f0 a9 35 54 a1 f4 b5 d7 35 2a 36 08 eb 70 37
       1.266136e-06 -1.8226369e-06 2.5363313e-06 1.4359837e-05
000240 77 65 87 b7 fa 19 2e b6 a7 5e af b6 d1 c2 14 b7
       -1.6140502e-05 -2.594314e-06 -5.2264254e-06 -8.866847e-06
000250 88 87 d3 b6 3c a2 ac 37 24 88 f7 b3 a8 ef 59 b7
       -6.304068e-06 2.0579544e-05 -1.15265976e-07 -1.2990007e-05
000260 65 8e a5 37 f5 42 5a b5 8a 11 55 36 55 7e 25 37
       1.973584e-05 -8.1308764e-07 3.1749682e-06 9.86418e-06
000270 08 92 a1 b6 e4 b4 9b 37 0f 3e 33 b6 61 0c b2 37
       -4.815174e-06 1.8561674e-05 -2.6709201e-06 2.1225018e-05
000280 7d 13 8a 36 f7 3e 35 37 6e f0 48 37 05 8d 1a 37
       4.114989e-06 1.0803101e-05 1.1976908e-05 9.211949e-06
000290 03 cd fe b6 8c 36 95 b5 00 02 f4 b6 cf 7b 10 37
       -7.5936564e-06 -1.111724e-06 -7.2719995e-06 8.611895e-06
0002a0 e0 e1 74 b8 1a d9 de b6 7d ba 73 b7 7b ae 24 b8
       -5.8384496e-05 -6.6413895e-06 -1.4527349e-05 -3.9263145e-05
0002b0 88 ef c1 b7 b8 ba 97 38 33 54 07 b7 70 58 b9 b8
       -2.3118933e-05 7.23502e-05 -8.066231e-06 -8.83796e-05
0002c0 0b 6c 9f 38 43 3c 0b 38 d1 11 0f b5 32 e0 32 b8
       7.6018354e-05 3.3196306e-05 -5.329758e-07 -4.2647305e-05
0002d0 85 3f 96 b8 0c b5 1e 37 e7 7c ef b7 2d d5 c2 b7
       -7.164389e-05 9.459687e-06 -2.8549182e-05 -2.322587e-05
0002e0 b1 3f 5b 38 c4 37 38 b7 c3 8b df b7 75 1d b5 b8
       5.2272986e-05 -1.0980239e-05 -2.6648753e-05 -8.636239e-05
0002f0 25 66 ff 38 ee 65 66 36 3d f0 45 38 ff 5c da 37
       0.000121783734 3.4332002e-06 4.71922e-05 2.603093e-05
000300 5b 10 81 b8 25 0a 2f 38 fa 22 56 b7 69 7f f1 37
       -6.154246e-05 4.17327e-05 -1.2763538e-05 2.8788769e-05
000310 fd dd 54 b8 ff f2 1a 38 5e 16 4c 36 91 2b 06 37
       -5.075148e-05 3.694277e-05 3.0411388e-06 7.997166e-06
000320 93 eb b1 38 84 c3 dc b6 4e 7d 92 b7 a7 f9 c3 38
       8.483897e-05 -6.579272e-06 -1.7462906e-05 9.344826e-05
000330 d4 b8 02 b7 61 d5 ba b6 8b 7a 09 37 01 bf 97 b7
       -7.7916375e-06 -5.5680725e-06 8.194368e-06 -1.8089546e-05
000340 15 8b 8f b7 d2 2c 6b 37 10 06 70 36 a2 7e 80 b7
       -1.7111694e-05 1.4017527e-05 3.5766316e-06 -1.5317757e-05
000350 63 53 a3 37 41 e5 c3 36 f9 0b 23 b7 b6 bc 6e b6
       1.9469944e-05 5.8381415e-06 -9.718345e-06 -3.5574608e-06
000360 4c ad 34 b7 73 89 09 b7 82 79 e6 36 f7 53 b8 b7
       -1.0769185e-05 -8.197839e-06 6.8686795e-06 -2.1973608e-05
000370 6b b2 ae b7 00 f9 ae 37 e9 b0 24 b5 a4 a7 bd b7
       -2.0825499e-05 2.0858366e-05 -6.13522e-07 -2.260862e-05
000380 64 9c cd 37 47 9e 67 36 c0 dc 4a b7 69 78 d1 36
       2.451073e-05 3.4513812e-06 -1.2091536e-05 6.242703e-06
000390 7f 1b 26 b7 e2 71 bc b6 73 69 05 b6 57 1a a9 b7
       -9.900773e-06 -5.6160943e-06 -1.9879924e-06 -2.0158635e-05
0003a0 27 83 46 b7 a1 31 4f 37 44 b9 3c b6 00 dc 8e b7
       -1.1832256e-05 1.2349717e-05 -2.8122022e-06 -1.7030165e-05
0003b0 08 9a c7 37 e1 b7 de 35 7a c8 ec b5 f1 05 fb 36
       2.3794375e-05 1.6593805e-06 -1.7641717e-06 7.4810746e-06
0003c0 dc cd d8 b6 aa 45 2b b7 db f8 3b 37 e8 52 70 36
       -6.461267e-06 -1.0208614e-05 1.120401e-05 3.5811045e-06
0003d0 bc 7c 78 36 be da 1e 37 c2 66 ac b6 8a 83 11 b6
       3.7027485e-06 9.468464e-06 -5.137962e-06 -2.168325e-06
0003e0 0b 41 7a b6 d5 43 91 34 26 17 46 b6 28 11 8e 35
       -3.7290763e-06 2.705771e-07 -2.9517773e-06 1.0584818e-06
0003f0 e9 d6 01 b7 33 b8 36 35 fd 0b 9f b7 7d 37 77 b6
       -7.739037e-06 6.806833e-07 -1.895986e-05 -3.6838167e-06

exp_avg_sq f4 [256, 138]
000000 a7 40 9c 31 f2 43 1e 31 ab 9a e9 2f 08 b0 0f 30
       4.5475477e-09 2.3030648e-09 4.249235e-10 5.227325e-10
000010 c0 bc a9 30 b2 ba 2f 33 15 1a 57 31 7f 46 f2 31
       1.2350014e-09 4.091516e-08 3.1301444e-09 7.0511414e-09
000020 22 cf 2c 32 d0 5f f3 31 69 8a 56 32 18 20 a8 32
       1.0058814e-08 7.0831234e-09 1.248791e-08 1.9572369e-08
000030 91 7d da 30 01 54 99 32 64 88 a6 32 2a b6 22 31
       1.5897276e-09 1.7849745e-08 1.9386967e-08 2.367765e-09
000040 a5 3a 15 32 20 38 9c 32 ef 35 ba 30 d8 93 c6 30
       8.686276e-09 1.8186313e-08 1.354861e-09 1.4448416e-09
000050 ab cc c8 30 ed 32 e0 30 e2 18 d2 30 5b 6a e2 30
       1.4610085e-09 1.6312619e-09 1.5286583e-09 1.6473892e-09
000060 68 00 c1 30 58 90 ba 30 2f 2d e2 30 23 6e c6 30
       1.4042714e-09 1.3574306e-09 1.6456506e-09 1.4437699e-09
000070 60 c5 a4 30 99 03 d7 30 ee 31 27 33 66 47 93 33
       1.1988668e-09 1.5644331e-09 3.892813e-08 6.858208e-08
000080 82 02 a9 33 f6 4b 04 34 f8 e1 13 34 c1 0c 17 34
       7.870132e-08 1.2321092e-07 1.3772649e-07 1.4067611e-07
000090 ad c6 14 33 4c f4 8b 34 7b e2 68 34 4e 1b 6f 33
       3.463963e-08 2.6068517e-07 2.1689077e-07 5.5671357e-08
0000a0 88 e3 18 34 ca 07 3b 34 ea e9 30 33 67 5c 96 33
       1.4238879e-07 1.7418566e-07 4.1190937e-08 7.001727e-08
0000b0 ed 23 ae 33 b6 75 07 34 93 33 16 34 7e 49 22 34
       8.109041e-08 1.2615678e-07 1.3988601e-07 1.5114162e-07
0000c0 32 33 11 33 69 71 8c 34 d6 91 71 34 bf 4a 64 33
       3.3807005e-08 2.615955e-07 2.2497929e-07 5.3153368e-08
0000d0 35 7d 1a 34 ce 32 3a 34 b2 36 28 33 12 74 a1 33
       1.4387918e-07 1.7341083e-07 3.9165293e-08 7.51826e-08
0000e0 63 b2 b2 33 0c 38 10 34 ee 69 19 34 9d a2 15 34
       8.321219e-08 1.3431435e-07 1.4287772e-07 1.3935865e-07
0000f0 cf c0 19 33 77 e3 8b 34 d1 9a 69 34 9d 41 57 33
       3.5798447e-08 2.605627e-07 2.1756138e-07 5.0118263e-08
000100 1c 5a 1a 34 1d 1d 3b 34 f7 e8 5f 31 c0 23 fe 31
       1.4375149e-07 1.7426323e-07 3.2583196e-09 7.3964372e-09
000110 75 71 2a 32 82 17 ee 31 36 23 59 32 80 9c a6 32
       9.9210995e-09 6.929384e-09 1.26390685e-08 1.9396111e-08
000120 4d 1f d6 30 cd 94 93 32 90 ab a7 32 f2 44 15 31
       1.5579446e-09 1.7180719e-08 1.9519376e-08 2.1721545e-09
000130 6d 20 17 32 f9 79 9f 32 85 68 61 31 3e 18 f8 31
       8.79673e-09 1.8565503e-08 3.2801222e-09 7.220506e-09
000140 9c 45 2b 32 91 bd ec 31 f8 b1 56 32 2a e4 a4 32
       9.969337e-09 6.890055e-09 1.2496905e-08 1.919587e-08
000150 66 75 da 30 f3 0d 97 32 8a 44 a8 32 37 94 1e 31
       1.5894954e-09 1.7585057e-08 1.9588942e-08 2.3076276e-09
000160 93 f4 17 32 88 e2 9e 32 6f 94 5b 31 6d a1 f5 31
       8.8449665e-09 1.8496635e-08 3.195307e-09 7.1487904e-09
000170 1f 6f 2d 32 b3 78 ec 31 03 d7 56 32 61 e4 a5 32
       1.0095191e-08 6.882226e-09 1.2505327e-08 1.9312383e-08
000180 47 15 d5 30 34 f7 97 32 30 8e a8 32 7d 13 26 31
       1.5503837e-09 1.7691129e-08 1.9622433e-08 2.4167257e-09
000190 20 6f 15 32 99 25 9d 32 f9 7e a7 30 be 62 c9 30
       8.698208e-09 1.8294303e-08 1.2186937e-09 1.4652739e-09
0001a0 d3 97 b1 30 7e ac c1 30 95 d7 c7 30 e1 da e2 30
       1.2921596e-09 1.4091623e-09 1.4540428e-09 1.6505873e-09
0001b0 75 d8 aa 30 7a c1 9e 30 d0 5f db 30 c5 4a d7 30
       1.2430649e-09 1.1551002e-09 1.5961579e-09 1.566456e-09
0001c0 a6 c2 9f 30 44 22 cf 30 ef 5c aa 30 89 64 c2 30
       1.1624095e-09 1.5070971e-09 1.2395541e-09 1.4143932e-09
0001d0 2f fb a9 30 7d 25 d5 30 f2 fc e2 30 b2 8d e9 30
       1.2367759e-09 1.5508445e-09 1.6515556e-09 1.6993253e-09
0001e0 1f 72 ae 30 00 e7 a1 30 c7 ec e6 30 f5 14 c0 30
       1.2692601e-09 1.1779946e-09 1.6801999e-09 1.3975795e-09
0001f0 8c 1b 99 30 8e 17 ec 30 14 1b b0 30 8e 2d c2 30
       1.1140044e-09 1.7177955e-09 1.2813381e-09 1.4128305e-09
000200 1c d4 c1 30 6e 06 db 30 49 d0 d4 30 27 d6 f6 30
       1.4102883e-09 1.5936175e-09 1.5484228e-09 1.7959721e-09
000210 b2 19 c0 30 98 3c ba 30 49 48 ed 30 1e b1 bd 30
       1.3977142e-09 1.3550503e-09 1.7264564e-09 1.38019e-09
000220 a1 54 ae 30 69 1b f1 30 ee 46 a0 31 a2 72 10 31
       1.2684219e-09 1.7542848e-09 4.6646766e-09 2.101992e-09
000230 eb d5 cd 2f ba b9 20 30 a1 c0 a9 30 9d 52 32 33
       3.744128e-10 5.8471594e-10 1.2351117e-09 4.151899e-08
000240 e3 5d 46 31 ea d5 01 32 fb e4 2d 32 d2 ce ee 31
       2.886616e-09 7.557427e-09 1.01219895e-08 6.9502244e-09
000250 97 df 4b 32 ee 8d a8 32 74 ba d9 30 81 70 95 32
       1.1866994e-08 1.9622316e-08 1.5841821e-09 1.7397044e-08
000260 e8 28 ac 32 61 92 16 31 bb 4d 1a 32 be 82 a5 32
       2.0042037e-08 2.191108e-09 8.981654e-09 1.9267983e-08
000270 12 73 aa 30 89 ca b1 30 68 99 a5 30 57 c0 d6 30
       1.2401833e-09 1.2936009e-09 1.2048931e-09 1.5625216e-09
000280 a7 a1 ca 30 2e 49 e1 30 2d a4 b2 30 2a 75 a9 30
       1.4743379e-09 1.6391704e-09 1.2997866e-09 1.2329668e-09
000290 2b 2e d6 30 50 41 d4 30 0d 4c a1 30 90 ef e2 30
       1.5583671e-09 1.5443593e-09 1.1735907e-09 1.6511752e-09
0002a0 de e0 11 33 9f 6f 9a 33 99 5c a5 33 71 6d 09 34
       3.396496e-08 7.1914876e-08 7.700255e-08 1.2798934e-07
0002b0 20 b5 13 34 d6 be 1e 34 dc 05 0f 33 c9 82 8a 34
       1.3756335e-07 1.4784322e-07 3.330011e-08 2.5799662e-07
0002c0 83 91 65 34 ea 3f 66 33 40 c1 1f 34 86 e0 39 34
       2.1380224e-07 5.3609178e-08 1.4878333e-07 1.7311149e-07
0002d0 79 cc 22 33 df 3a a1 33 aa 76 b1 33 7f b5 08 34
       3.790453e-08 7.507855e-08 8.26379e-08 1.2732015e-07
0002e0 49 27 11 34 ce ec 1e 34 6b c0 0e 33 bb a3 8c 34
       1.3518469e-07 1.4801046e-07 3.3236955e-08 2.6196162e-07
0002f0 4b ad 68 34 24 4a 5d 33 62 ce 21 34 e5 70 39 34
       2.1669727e-07 5.1523003e-08 1.5069375e-07 1.7270538e-07
000300 09 32 25 33 9a b7 a0 33 57 0c ae 33 ec 5a 0e 34
       3.8462563e-08 7.4839775e-08 8.104751e-08 1.3257858e-07
000310 6c 38 0f 34 ce fc 18 34 7b 93 12 33 51 84 89 34
       1.3338439e-07 1.4248073e-07 3.4127407e-08 2.561451e-07
000320 ae 6a 6c 34 45 52 53 33 8b 0a 20 34 c3 9b 41 34
       2.2018023e-07 4.920209e-08 1.4904997e-07 1.8031191e-07
000330 30 da 44 31 e3 a7 01 32 71 8e 2e 32 02 e4 e0 31
       2.864578e-09 7.546961e-09 1.016052e-08 6.5451795e-09
000340 4d 06 54 32 f6 6b a7 32 94 18 c2 30 e2 bd 96 32
       1.2341457e-08 1.9490454e-08 1.4122343e-09 1.7548647e-08
000350 7a 50 ae 32 f3 a5 13 31 87 ac 1b 32 ea 63 a7 32
       2.0292863e-08 2.1485647e-09 9.061416e-09 1.9486794e-08
000360 12 f2 44 31 0b ea fd 31 6f dc 27 32 7d 46 e6 31
       2.8659355e-09 7.3898767e-09 9.7708e-09 6.7018946e-09
000370 fc 1b 53 32 e7 4f a7 32 e5 3a d0 30 1f 3f 97 32
       1.2288179e-08 1.9477694e-08 1.5150731e-09 1.7607418e-08
000380 84 cf ad 32 e0 41 1a 31 71 43 1c 32 05 b1 a6 32
       2.0234218e-08 2.2447395e-09 9.0957295e-09 1.9405443e-08
000390 e0 7c 40 31 ab 54 00 32 d8 b7 28 32 6b f2 e7 31
       2.801066e-09 7.469832e-09 9.820688e-09 6.7505446e-09
0003a0 b7 79 4e 32 c8 09 a8 32 38 97 d5 30 1b c1 95 32
       1.2018453e-08 1.9562222e-08 1.5540769e-09 1.7433697e-08
0003b0 10 74 ac 32 75 cb 19 31 10 44 19 32 6f 63 a5 32
       2.0076214e-08 2.2380082e-09 8.921248e-09 1.9253745e-08
0003c0 b1 42 a7 30 20 bd b7 30 7a a5 a8 30 24 c8 bb 30
       1.2169804e-09 1.3368755e-09 1.227064e-09 1.3662924e-09
0003d0 83 03 c7 30 d2 59 d3 30 ad 84 a3 30 83 91 99 30
       1.4480154e-09 1.5377799e-09 1.189752e-09 1.1173572e-09
0003e0 2d 58 ce 30 13 7b c6 30 b6 34 97 30 1f 28 d3 30
       1.5013534e-09 1.4441376e-09 1.1001677e-09 1.5363674e-09
0003f0 84 14 9f 30 1e fa c4 30 64 b0 b7 30 23 5b b1 30
       1.1574603e-09 1.4331965e-09 1.3365136e-09 1.2904348e-09
