models/policy_1.pt (torch, 774536 bytes, 8 tensors)

weight f4 [512, 48]
00000000: 9714 26be 7d76 e3bd 96fa 143d cf8e 453e
00000010: 95fe 753e abdd 1d3d 4da2 9dbe 7154 89be
00000020: e01d f43d b15f db3d 0512 263d 45d1 013d
00000030: a66b 123e 2a52 d33e 85fb 89be e8fc 833c
00000040: 7970 3d3e 4990 8fbe baa4 8cbe a6a3 aa3e
00000050: 7e98 573e 6c57 163e 52f9 b23e 67fd 703d
00000060: 3359 403e 5a28 db3d b988 3dbd 50c2 a63e
00000070: 184b cbbd ef7d 083e b120 133e 10fc 0f3e
00000080: b740 953e 7c93 11be 9e98 5abc 7cf6 c63d
00000090: ac2c 933c e18b d8bd 36b2 173d 36c2 38bc
000000a0: 7bcc 9abc e171 22bc 68a3 42bd 67a3 763c
000000b0: c560 1bbd 61bd d9bd 87e4 9cbc 4be2 2bbc
000000c0: 7e7b febd 820e acbd 553f d03d 3524 3fbe
000000d0: ce6b a63e 61dc ce39 0d29 1ebe 2987 8d3d
000000e0: 0ec5 923d aa22 163e 6590 8ebd 3880 19bf
000000f0: 2325 803e ce58 b4bd 328d 99be c0e8 a5be
00000100: d3c0 dbbe 847d 6cbd e2bd f9be e375 cc3d
00000110: f192 a53d 0fe9 1e3e f339 ebbe dfda 3abe
00000120: 1f39 b8bd befc 3c3e 6e7a 00be 58aa 593d
00000130: 517a 1eb9 343c 363e 488c 2f3b bd91 95be
00000140: 105c 68bd 1964 2fbd 26b5 8fbd 8f2e 8f3d
00000150: e6a3 7cbd 1bd1 823d 33c0 a83c 27c9 8abd
00000160: 1810 c63c e52b 8fbd 7dd3 3fbb 33ef c13c
00000170: 96ad 403d 66fd 55bd e87b 213d 5801 bebd
00000180: 307f 90bd 9ebe 25ba 75d1 953d 6ea5 963e
00000190: 9ead a4be 6ed0 63be a95b ba3e 5a4d 11be
000001a0: 104e 9e3d 33fc 3739 1888 ef3d 748a dbbd
000001b0: 016e 293e 7078 0d3e 77e0 053f 12f2 9c3e
000001c0: 626b 1d3e 37ba 39be 594b 2f3d be63 20bc
000001d0: f527 5e3c e076 8cbe 10b8 8dbd f7ff 4b3e
000001e0: 8213 f73d 9340 de3d 61c8 883c 26a0 cabc
000001f0: 3cb7 a6be f701 d43d fd56 a73e 4b05 87bd
00000200: 78c0 5ebe 67ba e83d 4ba6 28be e87d 973d
00000210: 1a3b c2bc 8831 ee3c b8da 98bc 1e2c 6f3d
00000220: 8b69 853d 0e99 a63d a7ef 42bd 7b1b a2bd
00000230: 1373 56bc 9d0c e2bd 2b14 57bd 3a77 d9bd
00000240: bc23 4bbe f5a4 cfbd aaf5 3e3a c6d7 f03d
00000250: d19d 2dbe 3e1f 273e c42b 38bd 67b0 2d3c
00000260: 138a 4c3c ea2f a93d ac4b 803d ba17 9cbe
00000270: 3a53 503c d105 b3bd 4bd8 ab3e ed7d 5dbe
00000280: a525 6dbe 43d6 19be 7987 97be 6e61 663c
00000290: 51d8 773e 8092 51bc 1143 5bbc 0f58 2e3e
000002a0: 8298 85be 697f 2dbe 0b24 efbe 85b3 283e
000002b0: 2c5f febd 2b4a 38bc dfb7 8f3e 6cb5 323e
000002c0: 7af6 653e 96a0 9cbe 30fc 0dbe 404e 7e3e
000002d0: 16ac 453d c403 30bc b938 80bd 9f5f 1e3d
000002e0: d3a3 1ebd ed58 983a cd83 fc3c c272 b13d
000002f0: 6c76 96bc 3deb 8b3c 5ae6 07bd 3cf7 f3bc
00000300: 7f5a 8a3e 69cc be3c 952a 98bd 0851 95bd
00000310: 90e4 19be f3e7 233e 6751 56be 3b43 da3d
00000320: e9b8 0b3d 3899 93bd 03f2 95bd 6a01 f9be
00000330: bae8 663d b575 afbc b5ab a03d c73d a4be
00000340: 59a1 b63d 5ee3 2c3d 5606 66be c409 71be
00000350: 6939 1b3f 92ef af3e b659 55be 0a67 cb3e
00000360: a30a d83e 3fb4 563e 0e88 2e3d 3ed1 30be
00000370: 5cdf 553c 142b ccbd 2d59 6e3e c169 5abd
00000380: c293 473e 14d9 a23e 6e7d a8be 9655 4e3e
00000390: 27ec a3bb fb13 133d 85a2 c3bb a9cd 163d
000003a0: c76d d53c 40bd b33d ae67 07be 734f 2bbd
000003b0: 11dc 09bd 1d06 bd3c 1e0d c53c 875d 77bd
000003c0: 570d 5d3b e12c 3bbe a8da 463e 8b1d 3a3d
000003d0: 5110 0a3e 1d0e 4fbc e662 4bbe e51a f63e
000003e0: 987a d83d b958 243d 2d27 28bd 4b2f 73be
000003f0: 35d5 2b3e c6f7 1cbd db63 4d3d 8944 fc3e
-0.16218792 -0.11106584 0.03637179 0.19292758 0.24022897 0.038541477 -0.30787888 -0.26822236
0.11919761 0.10711611 0.04054453 0.031693716 0.14298877 0.41273624 -0.26949707 0.016111806
0.18499936 -0.28039768 -0.27469426 0.3332798 0.21054265 0.14681786 0.3495584 0.058835413
0.18784027 0.10701056 -0.046272967 0.32570124 -0.09926432 0.1332929 0.1436794 0.14060998
0.29150936 -0.14216417 -0.013342051 0.09714982 0.017965637 -0.10573555 0.03703519 -0.011276772
-0.018896332 -0.009914846 -0.047519118 0.015053607 -0.037934083 -0.10631824 -0.01915194 -0.010490964
-0.12425898 -0.08401205 0.101683296 -0.18666156 0.32504123 0.00039455577 -0.15445347 0.069105454
0.071664914 0.14661661 -0.06961135 -0.5996127 0.25028333 -0.08806001 -0.29990536 -0.32404137
-0.4292055 -0.05773689 -0.48777682 0.099834226 0.080846675 0.15518592 -0.4594265 -0.18247555
-0.0899527 0.18455788 -0.12546703 0.053140968 -0.0001511362 0.17796403 0.0026786495 -0.29212752
-0.056728423 -0.04282007 -0.07016973 0.06991302 -0.061679743 0.0638754 0.02059946 -0.06776648
0.024177596 -0.06990794 -0.0029270344 0.02367363 0.047040544 -0.052243613 0.039424807 -0.092776
-0.07055509 -0.00063226547 0.073153414 0.29423088 -0.3216371 -0.22247478 0.36398056 -0.14189664
0.07729733 0.00017546192 0.1169588 -0.10719767 0.1654587 0.13815475 0.5229563 0.30653435
0.15372995 -0.18137442 0.042796466 -0.009789405 0.013559331 -0.27434444 -0.06919873 0.19921862
0.12064268 0.1085216 0.01669711 -0.024734568 -0.32561672 0.10351937 0.32683554 -0.065928064
-0.21753109 0.113636784 -0.16469686 0.073970616 -0.023709822 0.029076353 -0.01865898 0.058391683
0.06514271 0.081346616 -0.04759183 -0.07915398 -0.013088959 -0.11037562 -0.052509468 -0.10618444
-0.1983785 -0.10138885 0.00072845316 0.117599055 -0.16954733 0.16320512 -0.044963613 0.01060114
0.012484091 0.08261092 0.06264433 -0.30486852 0.012715155 -0.08741344 0.33563456 -0.21630068
-0.23158891 -0.1502314 -0.29595545 0.014061315 0.24203612 -0.012791276 -0.013382689 0.17025779
-0.26092917 -0.16943134 -0.46707186 0.16474731 -0.12420496 -0.011248152 0.2806997 0.1745202
0.22457305 -0.30591267 -0.13865733 0.24834538 0.048259817 -0.010743085 -0.06260819 0.03866541
-0.038730454 0.0011623182 0.030824566 0.086644664 -0.018367015 0.017079944 -0.033178665 -0.029780976
0.27022168 0.02329083 -0.07429997 -0.07290846 -0.15028596 0.1600645 -0.2092949 0.106573544
0.03411189 -0.072069585 -0.07321551 -0.4863389 0.05637429 -0.021418432 0.078452505 -0.32078382
0.089174934 0.04220902 -0.22463354 -0.23538882 0.60634476 0.34362465 -0.20835003 0.3972705
0.42195615 0.20967196 0.04261022 -0.1726732 0.013053741 -0.09969154 0.23276205 -0.05332351
0.19489959 0.31806242 -0.32908195 0.20149836 -0.005002517 0.035907727 -0.0059703016 0.036817227
0.026053322 0.08776331 -0.13223144 -0.041823816 -0.033657137 0.023074204 0.024054106 -0.06039193
0.0033729875 -0.18278839 0.19419348 0.04543833 0.13482787 -0.012637642 -0.19861946 0.48067394
0.10570258 0.040123675 -0.041052986 -0.2374851 0.16780551 -0.038322233 0.050144058 0.49271038

bias f4 [512]
00000000: 83e6 fcbd ae20 57be 4423 f53d fbfa c13c
00000010: 5258 603c f6d1 49be d992 46be 82d4 21bd
00000020: c2e6 293c 0079 703d 115d 9cbd f725 fb3d
00000030: 4c7b b33d 9fe9 1cbd 82a6 d8bd 612d 13be
00000040: f738 67be dc6c 4a3b a8f1 23be 1019 e73d
00000050: 696e 81bc 9950 96bd 594f 30be 1620 e9bc
00000060: d0cd a2bd aa50 813c 53ef 27be 80cd b63d
00000070: 771a cfbc 82ef 253e ee3c 923d 2589 08be
00000080: 065b 20be c21a cfbc 1ac6 29be af8f 223e
00000090: 2b5a 7b3d fdd5 063e 93e2 c63d f8b1 91bd
000000a0: b3bd d83d 24d3 8dbd 4ea3 44bd 0a70 2d3e
000000b0: bae0 40bd 17e1 d33c b725 58be aed2 15be
000000c0: cb5a 39bd 06ca 0dbd a905 70be 07c4 8ebc
000000d0: 28d6 153e 2825 75bd c6b4 9cbd e8b8 173b
000000e0: c3ee e63d f58c d7bd f07d 823d 2e58 8bbd
000000f0: 4904 bf3d c10a 29bb d7fb 893d 81aa d53d
00000100: da52 7cbd 88ea b63d 9659 163d aab8 5d3d
00000110: eb58 543d bb44 3b3d dc79 acbd c0b6 0cbe
00000120: 7c84 21be dfd0 1e3d 058d 61be 67f0 443d
00000130: 6298 b4bd ccce 1ebe 34d9 103e fce1 25be
00000140: 35a1 0cbc ba12 da3d d393 e33c ce4b 363c
00000150: 1100 ccbd 714b 283c 8f75 2dbd 4459 913d
00000160: 6eff fabd b2fa f2bb 4a07 853c 41e9 fb3d
00000170: 670e 103b f4eb 97bd 5858 19bd 9841 b3bd
00000180: fd51 7fbb f9d2 5f3d 38e3 c8bd 0b7c b5bd
00000190: 5e0d 14be d892 99bd 7839 053d 1741 8fbd
000001a0: 81d6 bd3d 9428 01be e741 10be be39 bfbd
000001b0: 0270 10bc 194e aebb ac7a 453c a3e2 59be
000001c0: e8b8 dc3c 8418 99bd 0d1e e13d 3893 99bd
000001d0: 5235 133d 05d6 2dbc a38d 9d3d 7fa0 1abd
000001e0: a3de 23be 7eca e3bd 5614 cfbd 4e3a 613d
000001f0: 67f5 d9bc a3df 24be 1d75 65bc 5ca7 0cbe
00000200: 8b5d 1bbe 9711 aebd 75ec 353c fcf2 283d
00000210: 2519 3b3d ca0b 14be 437d acbc b7b1 9fbd
00000220: e1a7 61bd 99f3 be3d 1a37 223e 8d4a b03d
00000230: b271 5abe f41d e13d dd64 eabc 3e13 27bd
00000240: 24a4 5e3d 9e8c e9bc b875 2cbd 6349 81bd
00000250: ef23 eebd 87e3 803d d109 fabd 2284 f73a
00000260: f5e0 c9bc ed6a 4fbe ff9f dabd 503a 28bc
00000270: 1ad6 923b bd4e 10be 00cd ec3d c6a4 e53c
00000280: 4fd8 12be 13db 0c3d 6738 25be cd42 17be
00000290: 184f 5cbe b402 86bd a843 42be f117 05bc
000002a0: 85b6 ebbd 98a2 b5bc c5f2 7dbe be8b 28bd
000002b0: 61cc 38bd 925a cc3d 2e14 9dbd 1c15 8dbe
000002c0: 6914 14be 523a 0abe b0a8 52be 74af 84be
000002d0: bd0b ebbd 740d 23bd ec83 ce3d 8f3e 8abe
000002e0: 997b f1bd 1a85 eb3d ad51 59be 21b1 883c
000002f0: 97cf bd3d af25 8fbc cc94 a5bd 270e 7bbd
00000300: 3145 103e ebc5 b5bc 4974 cfbd d981 3ebd
00000310: 7f68 9f3b 4d66 1a3c 54a6 1f3e d6ec 81bd
00000320: e729 14bc dd2e 043d 8448 a03d 14e4 c3bd
00000330: 593f dcbd e454 4abe 6ecf f4bd 0cd7 233d
00000340: e27c 6dbd 9444 27be b3ab a73d 8a36 4bbb
00000350: 50f9 aebd 81f7 d4bc dc30 97bd a2cd c8bd
00000360: f08a 6fbc bafd 0ebe 212b b8bc 2b6f 253b
00000370: 5508 713d 2e46 93bd 925a 4b3d 2768 c4bd
00000380: 97dc 8a3d e9ac eebd e8b3 d73c 21dd 2dbb
00000390: 9042 0abe 9f4e 0abe c21d c23d 51d2 d6bd
000003a0: 2333 cbbd 313d 1dbe 5d47 fcbd 5e94 633d
000003b0: d82c 063d ab65 35be 8798 74bc 852e 0c3e
000003c0: 02eb 553d 159e 8dbb c48a 15be 06c7 0abd
000003d0: 7dbd 05be aec7 6dbd 7c2a 9abd 0540 30bd
000003e0: 2bea babd 3ffe bebd 293e 47bd 5ea8 d7bd
000003f0: 5280 4abb 558c 043d 7289 0a3d 885c fb3c
-0.12348654 -0.2100856 0.11969617 0.023679247 0.013692932 -0.19709 -0.19391955 -0.039509304
0.010369958 0.058709145 -0.076349385 0.122631006 0.087637514 -0.038308736 -0.10578634 -0.1437278
-0.22580324 0.003088764 -0.16010153 0.11284077 -0.015799718 -0.073395915 -0.17217769 -0.028457683
-0.07949412 0.015785534 -0.16399889 0.08925915 -0.025281174 0.16204646 0.07140528 -0.13333566
-0.15659723 -0.025281314 -0.16579476 0.15875123 0.061365288 0.13167568 0.09711184 -0.07114023
0.10583057 -0.069250375 -0.048007302 0.16937271 -0.047089316 0.025864167 -0.21108137 -0.14631149
-0.045252603 -0.034616493 -0.23439659 -0.017427457 0.14632475 -0.059849888 -0.07651667 0.0023150984
0.11276009 -0.10524932 0.06371677 -0.06803928 0.09326989 -0.0025793763 0.06737488 0.10432912
-0.06160245 0.08931452 0.03670653 0.054131187 0.05184261 0.045719843 -0.0842168 -0.13741589
-0.15773195 0.038773414 -0.22026451 0.048080828 -0.08818127 -0.15508574 0.14145356 -0.16199487
-0.008583357 0.10648103 0.027780449 0.011126472 -0.0996095 0.010271893 -0.04234844 0.07097104
-0.122557506 -0.007415139 0.016238827 0.12300349 0.002198124 -0.07418051 -0.037437767 -0.087527454
-0.003895878 0.05464456 -0.098089635 -0.0886155 -0.14458224 -0.07498711 0.03252551 -0.06994837
0.09269429 -0.12613136 -0.1408764 -0.09337185 -0.008815767 -0.0053193686 0.012053173 -0.21277861
0.026943639 -0.07475379 0.1099206 -0.07498783 0.035939522 -0.010610108 0.07693031 -0.037750717
-0.16002898 -0.11122607 -0.10111301 0.054987244 -0.026606275 -0.16100936 -0.014004973 -0.13735718
-0.15172403 -0.08499449 0.011103739 0.041247353 0.045678277 -0.14457622 -0.021055823 -0.07797568
-0.055091742 0.09323806 0.15841332 0.086079694 -0.21332434 0.10992041 -0.028612548 -0.040789835
0.054355755 -0.028509434 -0.042104453 -0.063128255 -0.116279475 0.062933974 -0.122089036 0.0018883983
-0.0246434 -0.20255633 -0.10675048 -0.010267809 0.0044810893 -0.14092536 0.11562538 0.028032672
-0.14340328 0.034388613 -0.16134797 -0.14771576 -0.21514547 -0.06543484 -0.18971121 -0.008123384
-0.11509422 -0.022172257 -0.2479964 -0.041148894 -0.045116786 0.099782124 -0.076698646 -0.27555168
-0.14460911 -0.1349881 -0.20572162 -0.2591511 -0.11476848 -0.03980775 0.10083756 -0.27000853
-0.117911525 0.114999965 -0.21222563 0.016686024 0.0926811 -0.017474024 -0.080850214 -0.061292794
0.14088894 -0.022189101 -0.101296015 -0.04651055 0.004864752 0.0094238045 0.15590793 -0.06344001
-0.009043193 0.032271255 0.07826331 -0.09564987 -0.1075427 -0.19758946 -0.119536266 0.040000007
-0.057980426 -0.16334754 0.08187046 -0.003100785 -0.08543646 -0.025996925 -0.07382366 -0.09804846
-0.014620528 -0.13963977 -0.022481503 0.0025243263 0.058845837 -0.0719112 0.04964692 -0.09590178
0.067803554 -0.11654074 0.026330903 -0.0026529508 -0.13501954 -0.13506554 0.09478332 -0.104893334
-0.09921863 -0.15355374 -0.12318299 0.055561416 0.03275761 -0.17714565 -0.0149289435 0.13689621
0.052226074 -0.0043218234 -0.14603716 -0.03388121 -0.13060565 -0.058051758 -0.075276345 -0.043029804
-0.09126695 -0.09325837 -0.048643265 -0.1053016 -0.0030899239 0.032360394 0.033822484 0.03068377

weight f4 [256, 512]
00000000: 3cea c93d 2a37 563d fdb6 713c 4559 2ebc
00000010: 1bab 633d b775 9f3d 2202 a63d 988a 17bc
00000020: dbb3 693c 16c5 293d ed8b 073d a900 8cbd
00000030: 3b8e 84bb 008c 853d 1948 70bd 6cfc d9bb
00000040: 0123 383d 0759 c9bc 253e 453d a843 493d
00000050: 3cf3 23bd 0777 643d d890 1c3d e86b 73bd
00000060: 22d7 33bd 27d8 833d e392 b9bd 792b f23d
00000070: 511d dfbc 5d85 d33c d9b0 4d3d 96a0 28be
00000080: aa5a 4f3d e3c8 75bd fcee 16bb b853 713b
00000090: 64f4 c63c c371 8a3c 3ecd 893d 3536 dbbd
000000a0: b3ba a53b 6367 22bc 78aa b8bc 4ace 41bc
000000b0: d563 19bd a00f 2a3d 3d2f d3bc 6ada ac3d
000000c0: 013d eebc 6f5b 87bd c858 c23c d13d cbbd
000000d0: 2510 0fbe 5593 5a3d 9ee0 47bd f09e 103d
000000e0: 884b d2bc 55ba 25bc 03f3 4d3d b256 3f3d
000000f0: 25c9 7cbc 2d85 4b3d 0c61 d7bc 5b6a 96bc
00000100: 13fd 84bd 6171 8c3b 1585 cbbb e40b 6f3c
00000110: 3184 10bd f341 eebc e8ca 973b 8e4a 5bbb
00000120: a9de 4c3d a8c0 a3bc cba4 5c3d 1d2d d1bc
00000130: 005d 203d 26db 143c e75c 76bd 2e93 8f3d
00000140: 903c 8dbd 7aa4 e4bc 6e51 b13d fbfd d13b
00000150: 717b 533d cca5 babd 57fc bd3c bd86 debb
00000160: db9d d9bd 6c15 883d 769a bb3c ed28 913b
00000170: 35fe fe3b 29e1 8abd cd56 983d 6883 96bc
00000180: 9fdf 5abd ab05 7cbd fc90 22bd 871f d7bc
00000190: 9ba5 8cbd 24b0 b23d 28fd b3bd 4b37 c2bc
000001a0: d1a0 dcbd a64f e3bc 8997 1abb 3752 213d
000001b0: 2805 623b df25 8fbc 0051 763d 9102 e2bd
000001c0: 5e8f 7d3d 5624 4bbd ad9b bfbc 08a0 613a
000001d0: 29ca 273d 8e66 a13c 9912 07bd 67e1 493d
000001e0: 98d3 25bd 6c48 943d b1fe a23d c667 b63c
000001f0: ac6b 913c da57 ea3c 6964 7cbb 3b97 21bb
00000200: 3484 7d3d 2470 fa3a 209b 9c3c d6e8 acbd
00000210: 602c ffbc 049d 103b 7fc9 053e 1f1c dcbd
00000220: 0229 76bc 2e58 d1bc 8928 ec3c 5f44 24bd
00000230: ca2c ac3c 305c 793d b4f5 2dbc aff4 16bd
00000240: 382e 603d af3a 153d 6402 553d 2049 e7bc
00000250: 481f 5fbd 1613 43bd fef2 94bc 8a8a cc3d
00000260: 8923 473d b8a6 6bbd 784f 1a3d ed7c 743d
00000270: b08d a9bc ae5f b6bc 79c2 293d 558e f9bc
00000280: b7d1 a93c e732 c63a b3e1 bbbc 8170 eebc
00000290: f230 5c3d e1d3 3d3d 2dca c2bc bed1 87bd
000002a0: 9647 8b3c 1991 d53b 6a7e 9abc ab13 82bd
000002b0: 829f 88bc c138 5abd 457f 4bbd b0de 7abb
000002c0: 4ff9 50bc 0947 aabc eac7 11be db99 d5bc
000002d0: 69dc 9e3d 2b3b b83d 9d20 48bd 4fa9 ad3d
000002e0: 4769 693c 4c7e 6c3d ebdd 383b 7c30 bcbd
000002f0: 3ba8 1b3b 1a74 e53a 29a4 92bd d79d 313d
00000300: 1c42 80bc 3c30 873c a04a 0cbd cd62 c73c
00000310: c815 bb3d 60c4 aa3d b743 bcbc 7004 873d
00000320: 548f 713c d865 303d a062 71bb 13f2 3b3d
00000330: 2460 a63d 6aa2 51bd 4f2a c23d be70 4cbb
00000340: 4ca9 79bd 088d aebc cf20 93bc f3b6 cc3b
00000350: 8272 eb3d 721f 3f3d 84ec 31bd b7b4 d8bb
00000360: c554 303c 0ac6 f9ba 17a5 a1b9 a7a5 8dbd
00000370: b6be b8bb 67d0 88bd b397 ccbd 60f0 97bc
00000380: f138 373d a64d a0bd e098 cc3c e13e 213d
00000390: addc 3e3c 36a8 893c 5410 c0bd 87a4 0fbd
000003a0: 039f 34bd 75a7 25bd 0de5 0abd 2b44 2dbd
000003b0: 6f42 663d 2874 3bbb 1a8a 16be 584a 033c
000003c0: 99f8 1b3c 18b0 023d ae20 593c 2c49 90bb
000003d0: 759e c23c 8a98 8c3d 773b f63b 77b8 8bbd
000003e0: 9634 6abd a841 4c3d 965a 2ebd bc3f 2c3b
000003f0: 1626 453c 722b 09bd 86b2 343c 45d5 00bc
0.0985913 0.052298702 0.0147531 -0.010641401 0.0555831 0.07786124 0.081058756 -0.009249352
0.014264072 0.04144772 0.033092428 -0.068360634 -0.0040452755 0.065208435 -0.058662508 -0.0066524055
0.044955257 -0.024578584 0.04815497 0.049136788 -0.04002689 0.055777576 0.03822407 -0.05942908
-0.04390634 0.06437712 -0.090612195 0.11824698 -0.027235659 0.025820429 0.050217483 -0.16467509
0.050623573 -0.060006034 -0.002303063 0.0036823582 0.024286456 0.016899949 0.067286 -0.107036985
0.0050576567 -0.009912345 -0.022542223 -0.011828968 -0.037448723 0.041518807 -0.02577936 0.08440097
-0.029081823 -0.066092364 0.023723975 -0.099239 -0.13971002 0.053363163 -0.048798196 0.035307825
-0.025670782 -0.010115226 0.050280582 0.04671354 -0.015428816 0.049687553 -0.026291393 -0.018361261
-0.064935826 0.0042859768 -0.006210933 0.014590237 -0.035282318 -0.029084181 0.0046323426 -0.0033461186
0.050017033 -0.019989327 0.053868096 -0.025534207 0.03915119 0.009085452 -0.060147192 0.07010494
-0.06896317 -0.02791046 0.086581096 0.0064084507 0.051631395 -0.091136545 0.023191614 -0.0067909644
-0.10625812 0.06644711 0.022900801 0.0044299276 0.0077817687 -0.06781227 0.07438431 -0.018373206
-0.053435918 -0.061528843 -0.03968905 -0.02626015 -0.06867524 0.087250024 -0.0878852 -0.023708006
-0.10772861 -0.02774794 -0.0023588857 0.039385047 0.0034487937 -0.017474113 0.06013584 -0.11035646
0.061904304 -0.0495952 -0.023389662 0.00086069154 0.04096428 0.019702222 -0.03297672 0.049287226
-0.040484995 0.07240376 0.07958735 0.02226628 0.017751537 0.028606344 -0.0038511998 -0.002465679
0.061893657 0.0019106907 0.019116938 -0.084428474 -0.03114909 0.0022066245 0.13065146 -0.10747551
-0.015024425 -0.025554743 0.028827922 -0.040104266 0.02101745 0.060878932 -0.010617662 -0.036854442
0.054731578 0.03643292 0.052004233 -0.02823311 -0.05447319 -0.047625624 -0.018182274 0.09987362
0.048617873 -0.057532042 0.037673444 0.05968945 -0.020697445 -0.02226242 0.04144523 -0.030463377
0.020729883 0.0015121371 -0.02293477 -0.02910638 0.053757615 0.04634464 -0.023778046 -0.06631802
0.017001908 0.006517541 -0.018859107 -0.063514076 -0.016677622 -0.05327678 -0.04968192 -0.0038279705
-0.012754752 -0.020785825 -0.14236417 -0.02607434 0.07756884 0.089956604 -0.048859227 0.08479559
0.0142462915 0.057737634 0.0028208445 -0.09188935 0.0023751396 0.0017505914 -0.07160217 0.04336342
-0.015656523 0.016502492 -0.034250855 0.024339104 0.09135014 0.08338237 -0.022981508 0.06592643
0.014743645 0.043065876 -0.0036832467 0.045885157 0.08123806 -0.05118028 0.09480726 -0.003119513
-0.06095247 -0.021307483 -0.01795998 0.006247395 0.1149645 0.046660848 -0.04343845 -0.0066133398
0.010762398 -0.0019056213 -0.00030831315 -0.06916361 -0.005637969 -0.066803746 -0.09989872 -0.018547237
0.044732038 -0.0782731 0.02497524 0.039366607 0.011649293 0.016803842 -0.09378114 -0.035069015
-0.044096958 -0.040442903 -0.033909846 -0.04230134 0.0562157 -0.002860317 -0.14701119 0.00801333
0.0095197195 0.031906217 0.01325242 -0.004403254 0.023757199 0.06865032 0.007514413 -0.06822293
-0.057179056 0.049867302 -0.04256686 0.0026283106 0.012033006 -0.0334887 0.011028891 -0.007863347

bias f4 [256]
00000000: f368 12bd d89f 5abd fda7 18bd 841e debd
00000010: 5cd8 44be b806 e33a f8fb 81bc 1c3d fabd
00000020: be28 26bd 0fef 42be a963 a0bd d22a b13c
00000030: ff59 58bc 9dea 64bc a708 f8bd daf1 94bc
00000040: a12d 34bd 5334 64bc 237c 62bd d017 82bc
00000050: e336 a8ba e410 d6bc 9521 18be 5027 b43b
00000060: 74f5 0bbe f8f0 27bd cfda 0abe 34af 2abd
00000070: cedf 32bd 8b1b 8fbd 89ec babd b4ed 3fbe
00000080: 5c60 6abd 347d aabc a4f3 7abd 0442 483c
00000090: 93a0 8dbc 4f23 d0bd 65cd 97bd 2f0c 99bd
000000a0: 40cb f4bd 8e1b aebd 4aec 2cbe 5ad6 4bbe
000000b0: ea4a 54bc bc61 82be e8bc 92bd 071d 66bd
000000c0: 8071 d0ba 2880 edbd 4b6c bdbd 54e8 5fbd
000000d0: 8a84 15be 4dae c4ba f0bd 77bd ebe7 9cbd
000000e0: a499 0ebd 496f dbbd 5dc4 c1bd 9cbd 2f3c
000000f0: 4078 86bd 419c 9bbd c4d3 ddbc 855c 0cbe
00000100: 2bd3 dcbd 60a4 e7bd 1ece 22be 505c b8bc
00000110: a7a7 123c 2820 92bd 438f 13bd a85d bebd
00000120: e798 0cbc 19e4 81bd 2356 63bd 8a8b 81bd
00000130: 0025 e0bc d600 e1bd 7a68 04be 9cec a8bd
00000140: 69fd 8fbd 9319 433c 9f69 27bd 9728 1abd
00000150: 58d2 a8bd 697a 6cbc 7307 d2bd 7738 31bd
00000160: 7412 aebd 77ec 3abd 2dfc 1abd fe81 e3bd
00000170: d363 26bb d35d 88bd 2c97 c1bd b990 25bd
00000180: a47a 87bd b459 f7bb ee6d 95bd e86a cfbd
00000190: d55a a1bd 72ef 7e3c f0c8 11be 0155 14bd
000001a0: c98b 553b b62d 00be f044 fabd dd68 aebd
000001b0: 8be8 b6bd 663d cebd 4e99 b13c b2f2 69bd
000001c0: b039 0b3d 69b8 8cbd 360a e3bd 49ea 66be
000001d0: cc65 03be 2b78 10bd 0136 0d3d 0a46 9e3d
000001e0: 04cc 0fbd b45b c2bc 7463 b2bd 56fa 37bd
000001f0: 289f e9bc d09e 62bd 9ff7 05be 9a52 91bd
00000200: 51cf b6bd c26d 06bd 1002 f4bd d91a 1fbd
00000210: ac65 91be daa6 eabc 3c00 11be 1e53 b7bd
00000220: 16fe d8bd 21b3 fbbd 252f c7bd 34ea 81be
00000230: 2b6d f1bc eabc 88bd 71e3 99be d008 23bd
00000240: 7813 9bbd 33bb a3bd 6810 a2bd 7e9c debd
00000250: 9306 07be 35af 1dbd 0e96 24be df09 a6bd
00000260: f6f1 adbd fd5f ffbd a762 dabd 252d 113b
00000270: 9318 c4bc 2897 8dbe d1bb 3fbd b83d 90bc
00000280: e700 32bd 4f27 08bd e9d5 a0bc f6de 8ebd
00000290: b2a2 88bd 94b1 dfbd 65ea 16bd ef53 f8bc
000002a0: 931c acbb 65e9 13bd 2504 44bd 37ed 113d
000002b0: 5d56 2abd b809 d0bc dd85 bcbd 89b3 37bd
000002c0: 4689 22be 2e52 2cbc c1c7 0bbe d963 3bbd
000002d0: f872 b4bd 0fdb e3bb acec afbd 1c4c 3fbd
000002e0: e763 82ba 4369 96bd 7cf4 2bbd a42c d0bd
000002f0: 5ca6 0fbe a555 e8bd 52d9 a6bd 4eac d5bd
00000300: 585a 34bd 571f bfbd d934 ff3a 45ce bcbd
00000310: 1eb9 02be fc18 91bd 07ad 69bd 15a0 17bd
00000320: 650f 48be 13e8 54bd 4f4d 3dbd 272b 8dbd
00000330: 87ab 86bd 73e5 bbbd 5f46 2d3c 7339 fbbc
00000340: 1e6d eebd 3e1f 89bd c150 bdbd 948c f9bc
00000350: f9ef 82bd 7cbf afbb d84e 17be 90e2 b9bd
00000360: 714c 9ebd 8be8 adbd c6d4 ab3c f78a 2abe
00000370: 543a 20be 172a cfbd 06d3 d7bd 728e 9cbd
00000380: d260 59bd caf7 37bd 25d4 a9bd 5074 b4bd
00000390: fdbf 8d3c 1a0f 10bd 3136 99bd fcea 53bc
000003a0: b867 29bd 57a4 eebd 1c60 08bd 9470 b8bd
000003b0: e7c6 edbd eeee a9bd e5ef 9cbc 0327 3fbd
000003c0: ebd7 8bbd c516 3e3d 1ee0 1fbe e430 25be
000003d0: df7a b4bd 494b a0bc f542 5bbd a013 85bd
000003e0: f39d 7dbd 6b12 55bd afab b5bc f891 32bd
000003f0: ab70 5f3c 15e9 36bd 1bf5 71bd 87da 43bc
-0.03574462 -0.053375095 -0.03726958 -0.10845664 -0.1922316 0.0017320728 -0.015867218 -0.12218687
-0.0405662 -0.19036506 -0.07831509 0.021626864 -0.0132050505 -0.013971952 -0.12111025 -0.01818173
-0.043988828 -0.013928491 -0.055294167 -0.015880495 -0.001283374 -0.026131101 -0.1485656 0.0054978505
-0.13667852 -0.04100129 -0.13560031 -0.041670993 -0.043670468 -0.06987675 -0.09127147 -0.1874302
-0.0572208 -0.020811655 -0.06126751 0.012222771 -0.017288482 -0.101629846 -0.07412223 -0.07473027
-0.11952829 -0.085013494 -0.16887012 -0.19905987 -0.012957314 -0.2546519 -0.07164937 -0.056180026
-0.0015902966 -0.115967095 -0.09249171 -0.054664925 -0.14601341 -0.0015005559 -0.060483873 -0.07661422
-0.034814492 -0.10714585 -0.094612814 0.010726359 -0.065659046 -0.075981624 -0.027078517 -0.13707168
-0.107824646 -0.11310649 -0.1589894 -0.022504956 0.008951104 -0.071350396 -0.036025297 -0.09295207
-0.008581377 -0.06342334 -0.05550207 -0.06325443 -0.027361393 -0.109864876 -0.1293048 -0.08248255
-0.07030756 0.011907953 -0.040872212 -0.037636366 -0.08243245 -0.014433482 -0.10255327 -0.04326674
-0.084996134 -0.045635667 -0.03783815 -0.111087784 -0.002538909 -0.066585205 -0.09452662 -0.04042122
-0.06615189 -0.0075485352 -0.07296358 -0.101278126 -0.07878653 0.015560018 -0.14236808 -0.03621388
0.003258454 -0.12517437 -0.1222018 -0.08516095 -0.08931073 -0.100703046 0.021679547 -0.057116218
0.033990562 -0.06871111 -0.11085932 -0.2255031 -0.12831801 -0.03527085 0.03447533 0.07728203
-0.035106674 -0.023725368 -0.087103754 -0.044916473 -0.028518274 -0.055327237 -0.13082741 -0.07095833
-0.08926261 -0.032819517 -0.11914456 -0.038843963 -0.28397882 -0.028644014 -0.14160246 -0.089514
-0.10595338 -0.122900255 -0.09725789 -0.25373995 -0.029471 -0.066766575 -0.30056337 -0.039803326
-0.07572073 -0.0799469 -0.079132855 -0.10869692 -0.13186102 -0.03849717 -0.16072866 -0.081073515
-0.08493416 -0.1246948 -0.10663348 0.0022152152 -0.0239375 -0.27654386 -0.046809975 -0.017607555
-0.04345789 -0.033240613 -0.01963325 -0.0697612 -0.06671657 -0.10922542 -0.03684463 -0.03031346
-0.0052524297 -0.036111254 -0.047855515 0.035626616 -0.04158627 -0.02539526 -0.0920522 -0.044848952
-0.15872678 -0.01051764 -0.13650419 -0.04574952 -0.08810991 -0.006953604 -0.085900635 -0.046703443
-0.0009947986 -0.07344296 -0.041981205 -0.101647645 -0.14028305 -0.113444604 -0.08146919 -0.10433255
-0.04403147 -0.093321495 0.0019470706 -0.0921903 -0.12765929 -0.070848435 -0.057049777 -0.0370179
-0.19537123 -0.051979136 -0.046216305 -0.06892996 -0.06575685 -0.09174623 0.01057586 -0.030667042
-0.11641906 -0.06695412 -0.09243918 -0.03046254 -0.063934274 -0.005363403 -0.1477617 -0.090764165
-0.07729424 -0.0849162 0.020975482 -0.16654573 -0.1564725 -0.1011545 -0.105382964 -0.07644357
-0.05307085 -0.044914044 -0.082924165 -0.08811247 0.017303461 -0.035170652 -0.07481039 -0.012934443
-0.04135868 -0.11652439 -0.033294782 -0.090058476 -0.11610203 -0.08297525 -0.01915736 -0.046668064
-0.068282925 0.046408433 -0.15612838 -0.16131932 -0.08812498 -0.019567149 -0.053530652 -0.06497884
-0.06191821 -0.052019518 -0.022176592 -0.043596238 0.013637702 -0.044655878 -0.05907164 -0.011953956

weight f4 [128, 256]
00000000: 3df3 80bc 2934 91bd c002 8e3d c46e 083d
00000010: e6cf 203d 86b5 8ebc cca3 4dbd d2ae 8c3d
00000020: 5aa5 fc3c 8e62 b83c 7313 8fbd 074e 7a3c
00000030: 1ddc 4abc 0d1f c83c 230e a23d a420 023e
00000040: 6e89 633d 6866 e5bc cb0a 863d 3a01 f03d
00000050: ed59 4cbd 2573 c43c 7ef2 c23d 0207 a2bd
00000060: f15b 8cbd 4cfe d8bc f726 8ebd d6dd 883d
00000070: 84e0 8abd 835b 503d 68d7 debd ba1e 5a3c
00000080: 3b60 273b 8c9f ecbc 54ba 66bc ade7 233e
00000090: 6d63 b33a 7b27 2d3d 59ee 86bd 6a72 d53d
000000a0: 47b6 893d 8197 873d ec11 103e 1949 b83c
000000b0: 5b8c c6bc b28c 0d3d afe7 53bc 344b 123b
000000c0: 56a0 893b b21f 8a3d 6092 b5bd dc5f fcbc
000000d0: e1fb b33c 1ff0 133d bf28 d93c 34f7 3e3c
000000e0: 31fe d5bc 1948 87bc 7707 2d3d a3ea 0f3d
000000f0: 3f95 38bd eadf 5ebd cb8f d7bb 5d37 43bc
00000100: a4bb 3cbb 8be3 8fbd 3cd8 013d 15ad c63c
00000110: 13ab 85bd 005b 073d 0e87 183e 0dfa b2bd
00000120: c91e 843d 3c8b 9a3c 480b d7bd 74f4 563c
00000130: a666 6b3c 7fd3 193d 0d9a 6bbd fe6f 78bd
00000140: edf5 2d3d 3697 3abd 6c18 38bd 7910 11bd
00000150: 4095 e4bd 1bf1 bbbc f242 6abb 0f6a e93d
00000160: 1629 9c3d 6eb5 cf3d 233f d2bc 9a6e 15bc
00000170: f92b 38ba eeb9 ddbc 1866 713d 0e26 313e
00000180: bb4b 24be 8177 3a3d 876d 283d fff9 b83d
00000190: afa5 d6bd 2e1f 6abd a70d 30bd 2408 193e
000001a0: 25a9 053d dc29 953d 68e7 1e3d 1235 153d
000001b0: 0b57 f8bd 0992 a03d f799 8f3d 736d 153d
000001c0: 2526 83bc c294 913d 2cac fdbd 513b 493e
000001d0: 284c c83d db61 0e3d f7ca 35bd 7a68 c2bd
000001e0: 6796 97bb 6715 d83d 580a 6ebd 0bb4 a2bd
000001f0: e837 25bd 1f70 953d c098 dd3d 9a5e 6a3b
00000200: 9294 1a3c 5004 1c3c 7533 4bbd b147 683d
00000210: e58b c83d ee40 ebbd ebff 473d a23f 22bd
00000220: 28a7 233d 68a6 543d 1f31 cd3c df18 aa3d
00000230: 443b e0bc 19cc a03b c282 5a3c 93ac 23bd
00000240: d365 283c 0cfe 2cbd dee2 e83a 21b9 c7bc
00000250: aa5f e93d 558d a83d a42b a9bd a141 b6bd
00000260: eb5d 02bc eb58 86bc ef9f 28bd 4cee 633c
00000270: db08 073d 33d6 c8bb 79e3 4bbc 483b 193d
00000280: 5868 2abd e162 983b 957d 0bbc a261 0b3a
00000290: 3d02 0e3e 25a2 95bd ece3 af3c de6c 993d
000002a0: 027a 06bb 96fe 683d 082b a8bd aed3 dbbc
000002b0: 2800 40bd 7d5b ce3b 04ca 813d 36b9 a3bd
000002c0: 4743 42bd 335a 49bc c3ea 0f3d 7e52 9cbd
000002d0: bfc1 2a3d 7d84 863d bdb2 48bd e34b b03b
000002e0: fb1f b53c 3bf7 cf3d 5bda 003d 54fa c53d
000002f0: a54b 283d 1d50 c43d f641 3e3d ebc2 103d
00000300: 33d6 79bd 69d4 f23d d81b e23d e83d c3bd
00000310: 3f81 48ba dcee b93d 50f4 703c 098d 83bd
00000320: 9728 c33d 3566 26bd 2e44 43bd 3320 05be
00000330: 1ff5 b5bd a133 283a c3e4 1b3e 4ce1 213c
00000340: 3628 89ba ed6e a43d 481d f0bd 7a2d 1a3d
00000350: c43c 823d 7c08 1fbd cbdf 013c 9e8f 3e3c
00000360: 0ec4 e23c 6ad0 e53d d57f e13b 3d7d 02bd
00000370: d561 f8bb 5b3f 90bd c8d7 913c ce18 e23d
00000380: 829a bfbd 37ac 29bd a8eb 69bd 586b 053e
00000390: af0c 7cbd 8448 a2bd 8da7 32bd b194 20bd
000003a0: 14b2 0fbe 3f2b a2bd aa01 f03d 635d a4bc
000003b0: 99cd 633d 51ff 94b9 500c acbd 562c 063d
000003c0: 0c7d 153e 237f 3abd 677a 19bd 88d7 8dbd
000003d0: 1903 f23c 370b c03b cf98 62bd a7b7 a3bc
000003e0: 5933 2c3e 66ea f1bc 9fbd f33c 1691 07bd
000003f0: eaba bcbc 7ac9 ce3d 9f5f 16bd bbf1 b03c
-0.015740985 -0.07090027 0.06934118 0.03330876 0.039260767 -0.017420541 -0.050205037 0.06869282
0.030840565 0.022507932 -0.069861315 0.015277392 -0.012381581 0.024428869 0.079128526 0.12707764
0.055550985 -0.028002933 0.06545027 0.11718984 -0.049890447 0.023980686 0.09518908 -0.07911493
-0.06853474 -0.026488446 -0.06941026 0.06682937 -0.06781104 0.050868522 -0.10880929 0.01331299
0.0025539536 -0.028884672 -0.01408251 0.16006346 0.0013686247 0.04227398 -0.0658843 0.104222134
0.0672422 0.06620694 0.14069337 0.022495793 -0.024236849 0.034558006 -0.012933656 0.0022322657
0.0042000217 0.06744327 -0.088658094 -0.030807428 0.021970691 0.03611767 0.026508687 0.0116556175
-0.026122184 -0.016513871 0.042243447 0.035135876 -0.045064207 -0.05441276 -0.0065784208 -0.011915055
-0.0028798366 -0.07025822 0.031700358 0.024252454 -0.065267704 0.03304577 0.1489527 -0.087391
0.06451184 0.01886522 -0.105001986 0.013119806 0.014367735 0.037555214 -0.05751996 -0.06065368
0.04247086 -0.045554362 -0.044945166 -0.0354161 -0.1116128 -0.022942116 -0.003574547 0.11397182
0.07625024 0.10142027 -0.025664872 -0.009120608 -0.00070255954 -0.027066197 0.058935255 0.17299673
-0.16044514 0.045524124 0.04112008 0.09032058 -0.104808204 -0.05715864 -0.04298177 0.14944512
0.032632012 0.07283375 0.038794905 0.036427565 -0.12125977 0.07840354 0.07011788 0.036481332
-0.0160094 0.071084514 -0.12386355 0.19651534 0.09780151 0.03476129 -0.044383015 -0.094925836
-0.0046260837 0.10550957 -0.058115333 -0.07944497 -0.04033652 0.07296776 0.108201504 0.0035761953
0.009434836 0.009522513 -0.04960962 0.056708995 0.09792308 -0.11486994 0.048828047 -0.039611466
0.039954334 0.05191651 0.025047837 0.08305525 -0.02737201 0.004907143 0.013336839 -0.0399595
0.010278183 -0.042234465 0.0017767807 -0.024380269 0.113951996 0.08230082 -0.08260277 -0.088992365
-0.007956962 -0.016399821 -0.04116815 0.013911795 0.03296743 -0.00612905 -0.01244437 0.03741005
-0.041603416 0.004650459 -0.008513828 0.00053169776 0.13868041 -0.07306317 0.021470986 0.07491468
-0.00205195 0.056883417 -0.082113326 -0.026834335 -0.04687515 0.0062975273 0.063373595 -0.079943106
-0.047427442 -0.012289572 0.035135996 -0.07632922 0.041688677 0.06568239 -0.048998583 0.00538014
0.022109976 0.10154577 0.03145824 0.09666887 0.041087765 0.09585593 0.046449624 0.03534214
-0.060995292 0.1185692 0.11040467 -0.09533292 -0.00076486537 0.09078762 0.014706686 -0.06423385
0.09529226 -0.040624816 -0.047672443 -0.13000564 -0.08884644 0.0006416385 0.15223984 0.009880375
-0.0010464254 0.0802897 -0.11724335 0.037641026 0.063592464 -0.03882645 0.007926892 0.011630921
0.027681377 0.112213925 0.006881694 -0.031857718 -0.007580022 -0.07043334 0.017803088 0.11039887
-0.09355642 -0.041424002 -0.057109505 0.1302923 -0.061535534 -0.079239875 -0.04361682 -0.039204303
-0.14032775 -0.07918405 0.117190674 -0.020064062 0.055615995 -0.00028418985 -0.08400786 0.032757126
0.14598483 -0.045531403 -0.037470248 -0.06925875 0.029542493 0.005860712 -0.05532151 -0.019985033
0.16816463 -0.029530715 0.029753504 -0.03309735 -0.023038346 0.10097022 -0.036712285 0.021599641

bias f4 [128]
00000000: b86d 8dbd e583 14be 9bda a4bd c44a 13bd
00000010: 37c6 b9bc 83f9 c1bd fb40 6bba c89d 93bd
00000020: f194 debb 7010 12bd 78c7 cabc 7111 d7bc
00000030: 3193 90bd 2c43 b4bd 6bf9 203c 085c 973a
00000040: 3a30 99bd 712f 36bd 9211 59be 0cd8 7cbd
00000050: 527e 1abd 9ae7 a0bd cb63 26bb bedc d6bd
00000060: 4c7b b13b b89e c7bc b337 4a3c e2f2 00ba
00000070: da67 7ebd 5912 62bc bc29 cabd 2d4c 1dbd
00000080: 4502 03bd ba67 0ebd b7c0 07bd 9ac5 6cbd
00000090: d9dc 28bd bdab 01be 6681 60bd 622f 8ebd
000000a0: da9e a83b abd5 dcbd 0f16 bf3c 1837 a0bd
000000b0: 3422 08bd 578e 22bd 9dd0 08be 5ddc 9bbd
000000c0: c4e2 0dbe a183 5bbe 3672 b7bc ec63 eabc
000000d0: fc7f 6cbd 3c32 a1bc d5fd d9bd 02fc 1ebe
000000e0: fdb9 1a3c 5a72 64bd 8b43 c4bd 85cb cdbd
000000f0: 0c0a b8bd 9d0a 12bc bb63 8abc 2860 84bd
00000100: 59c5 8dbd 08cf b2bd bd52 98bd 1e42 1bbd
00000110: 0e05 b8bc 7eb3 f7bc d8ce c4bb 4ac3 b0bd
00000120: d88e a5bd 62b4 233c f1a8 14bd 9260 87bd
00000130: 4299 13bd 276b 2fbd 35d1 1dbe e242 e4bd
00000140: 328d c8bd b54e 0bbc 9cfc 32bd 6a79 73bd
00000150: 3893 52bd 9cdc 4fbe 4c74 41be e9f1 e3bc
00000160: e66d d9bc 9aaa acbc 4b5a a1bd 2dd0 1cbd
00000170: e321 a4bd b5ad edbc 136f 1ebe 742e 333d
00000180: 1c3c bebd 6a77 c8bd 81f1 5f3c eaa5 0ebe
00000190: d7f9 b7bb fd4f ba3c 7d82 b4bd fd3f fa3b
000001a0: e382 a0bd d3a2 20be dd0e 9b3c 2c1e a3bc
000001b0: f14e b2bb 161b 893b 7c60 12bb c339 cebc
000001c0: 5d03 5dbd 01f7 19bd feac 09bd 5996 53bd
000001d0: a953 47bd edcd 90bc 7fdd 95bd 852a 9cbd
000001e0: ebdd c13b 6b2e a0bd 5614 17bd 8dbd 463b
000001f0: b33e d3bd cdda eebd 547c 62bd d2ad cfbd
-0.06905693 -0.14503439 -0.08049508 -0.035959974 -0.022677524 -0.09471419 -0.00089742214 -0.07207829
-0.0067926575 -0.035660207 -0.024753317 -0.026253434 -0.070593245 -0.088018745 0.009825091 0.0011547813
-0.074799016 -0.044478837 -0.21198109 -0.061729476 -0.037718125 -0.078566745 -0.002538907 -0.10491322
0.0054163095 -0.024367675 0.012342381 -0.0004919005 -0.06211076 -0.01379832 -0.098712415 -0.038402725
-0.031984586 -0.03476689 -0.03314277 -0.057805635 -0.04122624 -0.12663169 -0.054810904 -0.06942631
0.0051458897 -0.107829414 0.023325948 -0.07823008 -0.033235744 -0.039686527 -0.1336083 -0.0761039
-0.13856035 -0.21436931 -0.022393327 -0.0286121 -0.057739243 -0.019677274 -0.10644118 -0.15525821
0.009443757 -0.055773117 -0.09583195 -0.10048584 -0.08986291 -0.008913663 -0.016893258 -0.06463653
-0.06922407 -0.08730894 -0.07437656 -0.03790485 -0.022463348 -0.030236956 -0.006006103 -0.086309984
-0.08083886 0.009991737 -0.036293928 -0.06610216 -0.03603483 -0.042826798 -0.15411837 -0.111455694
-0.09792556 -0.008502652 -0.04369794 -0.05944196 -0.05140993 -0.20299 -0.1889202 -0.027825313
-0.026541661 -0.021077443 -0.0787855 -0.03828447 -0.08014276 -0.029013494 -0.15472059 0.043745473
-0.09288809 -0.097884014 0.013668419 -0.13930479 -0.0056145 0.02274322 -0.08813951 0.0076370225
-0.07837465 -0.15687113 0.018927986 -0.019911848 -0.0054415395 0.004184137 -0.0022335341 -0.025174027
-0.053958286 -0.037589077 -0.033612244 -0.051657055 -0.04866377 -0.017676318 -0.07317638 -0.076252975
0.0059163473 -0.078213535 -0.03688463 0.0030325383 -0.10314693 -0.11662827 -0.05529435 -0.101405755

weight f4 [12, 128]
00000000: 2cbd 8a3d ce18 bbba 5e4b bc39 0dba 0abd
00000010: ad07 a3bc 48a7 9a3d bbd7 133b 6dad dcbc
00000020: 0430 803c be0f 153c 9453 a4bc b9cc bf3c
00000030: 7013 1abd 0d17 973d 11da 00bd a8c8 9b3c
00000040: 4fbb 223d 0bb4 46bc 7db2 2f3c 9b50 883b
00000050: ecfb 723c 90f7 413d 2712 3ebd 319c 803d
00000060: 2fbc a5bc 05ba 29bc 904b 0f3d 2a3f e0bc
00000070: af23 d6ba 5247 47bc 2233 3a3d 2d7a c33c
00000080: 3d51 c0bc ecc0 3ebc 08dc 59bd ed83 50bc
00000090: 71de 973c fa0f 233d be9b 863d c475 743d
000000a0: 40c3 8dbc e4f4 c03a 8eea 1e3d 7a9a 3f3d
000000b0: a6d6 4d3b d649 14bc 54f1 913c 319a 2abd
000000c0: e126 edbb adb1 243d c786 3cbb 69b0 a2bc
000000d0: f764 1d3c ed1b 02bd 24f0 c9bc dc18 363d
000000e0: a47c a8bc 7a64 463d 24a4 56bd 3c2c dd3c
000000f0: 7be5 223d c0ac 5fbd d7f9 ab3b daaf 073d
00000100: c132 a13c 977e b8ba c270 9e3d 0704 96bb
00000110: 9cd1 d9bc 9aa6 083b a80f 353d a908 5bbb
00000120: 8d7e 053b 2231 e6ba b288 903d 4f32 ffbc
00000130: f7d9 2d3b 9459 1cbd ec95 edbc 10bb a83d
00000140: b661 9cba 0fc1 12bd 7b89 11bd 3ce3 cd3c
00000150: 5c32 40bd bd80 963d 78fc 42bd 21d0 763c
00000160: 60a0 29bd 86c3 4bbb fac5 a6bc 5029 c3bc
00000170: a8df 5f3d 062b 8b3c 6d34 753c e24a eebc
00000180: 3567 293b e21d a03d e558 1f3c 3536 49bc
00000190: 752b 413c 1ad0 d1bc 5d38 53bd 2bf6 09bd
000001a0: c1b6 25bc 35f9 703d 710d b4bb 09e2 ac3d
000001b0: cc63 56bc 777f 6cbb 1573 fabb 1807 44bc
000001c0: 566b adbb 06bc cf3b 7498 15bd 1198 b2bc
000001d0: 36c2 9339 d995 81bc e6f8 ddbd 170a d1bc
000001e0: 3678 8c3c bd57 a93c 3eec 9dbd d9ce 85bc
000001f0: 0606 ccbc 0680 8d3d afba 913c 83dd 333b
00000200: c726 9fbc bf7c 093d 20e8 2e3d ab37 753d
00000210: f76a f23c 7fcd 2cbc 7a06 6bbc ec9f 54bd
00000220: d123 4d3d 242c 673d b6c4 a0bd 41d9 983d
00000230: 1a3e d73c 56a4 24bb 3390 32bd f11a e13c
00000240: 850a f3bc ea8a 4b3c faf7 853d fd42 ccbc
00000250: 1a4a b3bd 6da3 b7bb b983 fbbc 570c 41bc
00000260: 309c 9cbd 5f16 32bd 5d1b 873d 1c79 ee3c
00000270: ce28 55bc faa7 74bc 4530 44bd 48cf 6d3b
00000280: fb18 3e3c 41c6 a83d 1041 7f3d 7b82 e7bd
00000290: 8fc7 3fbc 7d52 c63d 12b8 a73b 3d4f f8bd
000002a0: b4ec 023d b1e2 2cbd 6d79 1c3e 2d54 d63c
000002b0: c629 01bc 6bf4 72bc 60e2 75bd 5de0 9c3d
000002c0: 3804 4d3c e748 93bc 74c9 113d 3b1e 2b3d
000002d0: 82f2 643d 5405 1dbd 3ac3 8bbc 9f8a 3f3c
000002e0: 658e 86bd 9983 19bd 96a1 eabc a45b 8a3b
000002f0: 143b 533d 4769 e33d 946b a73d dddc 84bd
00000300: fef7 81bb a4d1 2abd edcf 55bc 7c22 1c3d
00000310: 055d 90bc 62a1 3ebd 2d99 093d 40fd 8ebb
00000320: 8cd1 11bd 98f0 3fbd 3b0f 853c 9124 1fbd
00000330: 88ad 0d3d 8aa9 4bbc 5d3d 0bbe 0085 df3c
00000340: 0f8c 27bd 67ad 0ebc 475e 95bb 9fe9 3dbc
00000350: 1aab 00bd 23a1 403c c52b 30bb 07bd 2ebc
00000360: 6956 c1bc 1b97 21bc b39d 62bc 5b31 95bd
00000370: 4821 1f3b 1cdd 91bc fa39 6b3b ccfe 753d
00000380: d572 723c 9a18 0e3b e8a9 afbd 060e 33bd
00000390: c85e bb3c 0886 22bb bf9c ab3d 0f25 5d3a
000003a0: d361 3fbd 4951 83bc e312 3f3d bb4a 773c
000003b0: 347d d6bb 0e1b c33c 1aae bdbb b515 9c3d
000003c0: d619 1fbd 1152 3ebd c5a5 9e3c 3886 6fbd
000003d0: cd19 e63c 5855 843c 06cb f9bc 2a41 083d
000003e0: 99d1 20bd 0b0c d03c 0542 163d 0164 50bd
000003f0: 65a1 4dbd 3a7a 7fbc e481 823d f976 02bc
0.06774363 -0.001427436 0.00035914307 -0.033868838 -0.019901121 0.075514376 0.0022559005 -0.026938165
0.015647896 0.0090979915 -0.020059384 0.023413049 -0.037616193 0.073774435 -0.031457964 0.019016579
0.039729413 -0.0121278865 0.010723707 0.0041599995 0.014830571 0.047355235 -0.04640403 0.06279791
-0.020231334 -0.010359292 0.03498417 -0.027373869 -0.0016337539 -0.012163 0.04545892 0.023861969
-0.023476237 -0.011642676 -0.053188354 -0.012726766 0.018538686 0.03981016 0.06572674 0.059682623
-0.017305017 0.0014721421 0.038797908 0.04677818 0.0031408458 -0.009050807 0.01781527 -0.041650955
-0.0072373007 0.040208507 -0.0028766857 -0.01985951 0.009606591 -0.031764913 -0.02465064 0.0444573
-0.020567246 0.048435666 -0.05240263 0.026998632 0.03976963 -0.054608107 0.005248289 0.03312669
0.019677522 -0.0014075813 0.077363506 -0.004578117 -0.026589207 0.0020851255 0.044204384 -0.003342191
0.002036962 -0.001756225 0.070573226 -0.031151919 0.0026527622 -0.038171366 -0.029002152 0.08238804
-0.0011930976 -0.035828646 -0.035531502 0.025132768 -0.046923026 0.07348774 -0.047604054 0.01506427
-0.04141271 -0.0031091883 -0.020358074 -0.02382341 0.054656655 0.016988289 0.014966113 -0.029088441
0.002584887 0.078182 0.009725784 -0.01228099 0.011790146 -0.025611926 -0.051567424 -0.03368203
-0.010114373 0.058831412 -0.0054947664 0.0844155 -0.013085317 -0.0036086717 -0.0076431134 -0.011964582
-0.0052923365 0.006339553 -0.036522344 -0.021801027 0.00028182723 -0.015818523 -0.10838489 -0.025517507
0.017147165 0.02067172 -0.07711075 -0.016333984 -0.024905216 0.06909184 0.017789213 0.0027445264
-0.01942767 0.033566233 0.04270184 0.059867542 0.02959202 -0.010547041 -0.014344806 -0.051910326
0.050082985 0.05643858 -0.0785002 0.07463313 0.02627473 -0.0025122366 -0.04359455 0.027478667
-0.029668102 0.012423256 0.065414384 -0.024934286 -0.08754368 -0.0056041987 -0.030702459 -0.011782727
-0.07646978 -0.043478366 0.06597016 0.029110484 -0.013010217 -0.014932627 -0.047897596 0.003628688
0.0116026355 0.08240939 0.062317908 -0.11304184 -0.011705293 0.09683702 0.0051183784 -0.121244885
0.03196402 -0.042208377 0.15280695 0.026163185 -0.007883495 -0.014828782 -0.06003034 0.076599814
0.012513213 -0.017979098 0.03559251 0.041776877 0.055895336 -0.03833516 -0.017060865 0.011690765
-0.06570128 -0.037479017 -0.028641503 0.00422235 0.051570013 0.111040644 0.08174816 -0.06487439
-0.0039663306 -0.041703835 -0.013050062 0.038118824 -0.01762248 -0.046540625 0.033593345 -0.004363686
-0.03560023 -0.046860307 0.016242614 -0.03885323 0.03458932 -0.012430558 -0.13597627 0.027285099
-0.040905055 -0.0087083345 -0.004558358 -0.011591344 -0.031413175 0.011757168 -0.0026881557 -0.010665185
-0.023600774 -0.0098626865 -0.013831544 -0.072848044 0.0024281312 -0.017805628 0.003589271 0.060057446
0.014797886 0.0021682144 -0.08577329 -0.043714546 0.022872344 -0.0024799127 0.08379506 0.0008436003
-0.04672415 -0.01602997 0.04664887 0.015093501 -0.006545687 0.023816612 -0.005788577 0.07621328
-0.038843 -0.046464983 0.019366154 -0.05847761 0.028088475 0.016153976 -0.030492317 0.03326527
-0.039262388 0.025396368 0.036684055 -0.05087662 -0.050202746 -0.015593106 0.06372431 -0.007962936

bias f4 [12]
00000000: 50e6 b2bd 3d3d 343e 626c 113d 3763 d73d
00000010: a52a 973d fb56 2cbd de75 54be 69e1 103e
00000020: be72 da3c c12f 2f3e acf5 9d3d 172a 043e
-0.08735335 0.17601486 0.035503753 0.105169706 0.07381181 -0.04207514 -0.20748088 0.14148487
0.026666041 0.1710806 0.07712874 0.12906681
