models/walking_estimator_hist_len_0_no_cmd_model.pt (torch, 716083 bytes, 24 tensors)

std f4 [3]
00000000: 0000 803f 0000 803f 0000 803f
1.0 1.0 1.0

actor.0.weight f4 [256, 42]
00000000: af65 50be 8ece 86be 1dbb a13e 6522 f7be
00000010: 7356 17bf 0483 983d ce94 5a3e 4905 79be
00000020: 4928 233e ef2c 2e3e 50bd 9a3d a803 afbe
00000030: 39f3 193f 30ac 1e3f 76e7 8f3e 52f8 89be
00000040: f28c c6be 76e6 bdbe a690 42bf 350d bb3d
00000050: 6a5d 263d 7609 ce3e 5304 17bf c809 aebe
00000060: cd56 c93e 8f4a acbe c3ab 1cbf 8366 02bf
00000070: f594 c03e 0783 423f d11c 77be 9fac 163d
00000080: ad2b 17bd 2258 b63d ff11 bfbd 576d 863d
00000090: db30 4b3d 2a3a 683c 24fb c93c 9fb7 d8bc
000000a0: db15 c13d 0eea 58bd 54d2 ed3d 7436 bfbe
000000b0: 7a89 76bd 1aa4 bfbe 3f59 c8be 88c8 2e3e
000000c0: 4126 233e 7296 8fbe 2740 1dbe 66e8 a83e
000000d0: 6a15 80be 4199 0dbd 85a8 22be be42 513e
000000e0: a309 a23d d64a 60bd f61a 6ebe 5281 c9bd
000000f0: 355b cf3e e317 c9be 5364 dabe 0b12 753d
00000100: 14c6 723e ff73 0cbe 7206 073e 26e0 853c
00000110: c7fb 803d 05c5 e93e 84d3 6d3a 42a4 8ebe
00000120: 09c3 9b3d 8bc6 7a3c 3536 0b3e f52a 06be
00000130: e3e1 0cbe 6751 3a3d 6838 e4bd 6532 8a3c
00000140: f967 21be d045 50bd 7c1d 17be cbb3 eb3d
00000150: 9b53 57bd 3d30 3c3e 74cb 40be e07f 943b
00000160: cc9a 263f fdff 123e 134d 84b9 a8ba 40be
00000170: 5c70 703e fa6f 16be cf70 40bd c771 823e
00000180: e4aa f1be a5fe 48be 4648 0e3b 7dd0 253e
00000190: 605b 54be 8893 293d 79ba 723e 266a f8bc
000001a0: c042 063e 4635 e03d 77d6 41bd 7284 c7bd
000001b0: 509b 743e 0d3d 02bf c664 c3be 42eb 05be
000001c0: 9de4 cd3d d09e 143e 77e3 ca3d e307 023e
000001d0: f943 4a3d a8e2 d4bd dad1 843b 0626 5a3d
000001e0: 86de 4fbd eaf0 0fbe 8337 583c 87fc 05be
000001f0: 2b61 f43c 3186 bbbc 4068 223c 204a 10be
00000200: dd58 a5be 4c8e cabe f848 2c3f 99d6 ddbd
00000210: 5ae9 d83c eadf 9ebe 097e 02be c579 11bf
00000220: 66c8 623e 70b0 713e bc86 4fbe 3366 c53d
00000230: 96cc 24bf efb2 e53e 9b48 fcbe 9f6c dc3e
00000240: 0421 4fbe a76f 023f 0c78 33be 5f80 12be
00000250: a8d6 353f dab7 d53e a4d1 acbe 60d5 2a3f
00000260: 9bb5 303f e68e bb3e c8dd cb3e 76ee 353e
00000270: bfbd 803d caab 81bc 333d 72bd 4912 1a3e
00000280: 4e42 033c 2bc8 8abc ad34 403d 75ac 48bc
00000290: 5292 1c3d f4b2 87bd e0e9 e33d 0459 d9bc
000002a0: 438e b9ba 1c42 d33e f57a 45bb e11c 82be
000002b0: fb58 08bf dc92 243e f55a ce3c ad56 6dbe
000002c0: c73f 283e 31ee b6bd 70c3 3dbe 3a9d 843e
000002d0: a441 303e aeeb fdbc 62bc aa3e 686f 013e
000002e0: 51fb 54be 3cf1 cbbd 7111 a73e f7b8 a4be
000002f0: 5421 ffbd f936 3d3e fa38 863e 6f51 723d
00000300: 8abd 13bf c319 3a3e bef9 3c3e 2176 c23e
00000310: 69f5 80be 52e8 4fbd 7f46 323d 594f ddbd
00000320: 4d63 053d 7b27 efbc 7d7a af3c b092 713d
00000330: 43a5 3fbd 5d1c 513e 5d4a 32be 2575 013e
00000340: 5c2d 503d 5bf8 583d edb6 80be 10f5 103e
00000350: ce54 df3d 8b64 a83d e02a 4fbf 2e19 543d
00000360: d929 e2bd 4cf5 e7be 954a c3bc 79b4 dd3d
00000370: fe83 b43d 5432 d03d 9f15 8a3e 9b01 e1be
00000380: 7dc0 8cbe 2973 fb3a c59b 353e 519c 90bd
00000390: e6e9 4b3e 0178 8b3e 765f e53e 3328 50bd
000003a0: 0c6d a2be 49a4 023f 930c 9dbe 9581 79be
000003b0: a5eb a0be 0695 d73c d06f c83e c916 ae3d
000003c0: ea8b 31bd 45d4 753c f661 16be 1976 4bbe
000003d0: 8c23 f7bd 019d ac3d 1b8f 17be 5e18 463e
000003e0: 8132 183e 8711 8abc 74a6 17bd b5e0 00be
000003f0: 70dd eebd 82f5 923e d62d adbd a0c7 35be
-0.20351289 -0.26329464 0.3158807 -0.48268428 -0.59116286 0.07446864 0.21345827 -0.24318422
0.15933336 0.17009328 0.0755564 -0.34182477 0.60136753 0.6198149 0.28106278 -0.26947266
-0.38779408 -0.3708989 -0.76001966 0.091333784 0.04061643 0.40241593 -0.58990973 -0.33991838
0.39324036 -0.33650634 -0.6119959 -0.5093767 0.37613645 0.7598118 -0.24132086 0.036785718
-0.036906887 0.08903529 -0.09329604 0.06563824 0.04960714 0.014174024 0.024655886 -0.026454745
0.09427997 -0.052957587 0.116123825 -0.37346232 -0.0601897 -0.37429887 -0.3913059 0.17068684
0.15932561 -0.28044468 -0.15356503 0.32989806 -0.25016338 -0.034569982 -0.15884598 0.20435616
0.07911994 -0.05475887 -0.23252472 -0.09839119 0.40499273 -0.39276037 -0.42654666 0.05983166
0.23708373 -0.13716124 0.13186052 0.016342234 0.06298023 0.45658126 0.0009072351 -0.27859694
0.076055594 0.015306125 0.13594897 -0.13102324 -0.13758044 0.045487788 -0.11143571 0.016869733
-0.15762319 -0.05084783 -0.14757341 0.11508902 -0.052569967 0.18377776 -0.18827611 0.0045318455
0.6507995 0.14355464 -0.00025234427 -0.18821204 0.23480362 -0.14691153 -0.046982583 0.2547743
-0.47200692 -0.19628389 0.0021710559 0.16192813 -0.20737982 0.041400462 0.23703946 -0.030324053
0.131114 0.10947661 -0.04732367 -0.09742059 0.23887372 -0.50874406 -0.38162822 -0.13078025
0.1005337 0.14513707 0.09906667 0.12698321 0.04938123 -0.10394794 0.0040533366 0.05325892
-0.050749324 -0.14056745 0.013196829 -0.13084613 0.02983149 -0.022891136 0.00991255 -0.14090776
-0.3229436 -0.3956169 0.6729884 -0.10831947 0.026478458 -0.31030208 -0.12743391 -0.5682643
0.22146758 0.23602462 -0.20266241 0.096386336 -0.64374673 0.44863078 -0.49274144 0.4305162
-0.20227438 0.5095162 -0.17526263 -0.14306782 0.71030664 0.4174183 -0.33753693 0.66731834
0.6902711 0.3663246 0.39817643 0.17766747 0.06286191 -0.015828986 -0.059140395 0.15046038
0.008011414 -0.01694115 0.046925236 -0.012248148 0.03822548 -0.066259295 0.111285925 -0.026531704
-0.0014156777 0.41261375 -0.0030133103 -0.25412658 -0.53260773 0.16071647 0.025189856 -0.23177595
0.16430579 -0.0893215 -0.18531585 0.25901204 0.1721254 -0.03099617 0.3334685 0.12640154
-0.20798995 -0.09958121 0.32630494 -0.32172367 -0.12457529 0.18478002 0.26215345 0.059159692
-0.5771109 0.1817389 0.18454644 0.3798075 -0.25187233 -0.050758667 0.04352426 -0.1080615
0.032565404 -0.02919363 0.021420712 0.058977783 -0.046788465 0.20420976 -0.1741118 0.12642343
0.050824508 0.052971225 -0.2513956 0.14155984 0.10904847 0.08222302 -0.809248 0.051781826
-0.11043138 -0.45304334 -0.023839274 0.10825438 0.08814238 0.10165849 0.2696962 -0.43946537
-0.27490607 0.0019184101 0.17735203 -0.07061065 0.19913444 0.27239993 0.44799393 -0.050819587
-0.3172382 0.5103193 -0.30673656 -0.24365838 -0.31429783 0.026316177 0.39147806 0.0850044
-0.043346323 0.015004222 -0.14685807 -0.1986927 -0.12067327 0.084283836 -0.14800684 0.19345233
0.14863016 -0.01685406 -0.037023976 -0.12585719 -0.116633296 0.28702933 -0.08456008 -0.17751932

actor.0.bias f4 [256]
00000000: e529 f03d 83b5 49be 12a3 42be ea5c d03d
00000010: 0d98 41be 8dcc 803d 5960 403e 53d8 c1bd
00000020: c772 b53d 9b7e 303d 05fd 193d d8b6 c83b
00000030: d456 3f3d 94a6 48be b606 9cbd 5281 24be
00000040: ec1e 023d 4e36 0ebe 5def 3fbd 5116 393e
00000050: 78e5 1bbc e426 1cbe bd60 533e 6631 cfbd
00000060: dd52 013e 57aa 1c3e 0286 10be 27f8 b6bd
00000070: 5f2a 63bd d992 5bbd 0813 3b3e 439e d73d
00000080: efde 28bc 985e 5e3d 8525 b5bd c5be 573e
00000090: 6ef4 b2bd afc5 153e 7fa4 be3c f507 00be
000000a0: efca cdbd 9755 eaba d187 823d 2cf2 253e
000000b0: 7f4a da3d 24c6 393d 72f3 743e cc30 c4bd
000000c0: 8f25 06be ac71 86bd 0245 3c3e 9155 e13d
000000d0: e1f3 84be ec33 e03d 399c 953d 00f0 6dbe
000000e0: 599d 3fbe 324c f3bd 526f 67bc 747e 583d
000000f0: 4678 4cbe 3e8c 613e 2090 2c3d cc5d 15bd
00000100: 0a51 38be 7f0d 81bd ecb7 2bbe 5a7f 413d
00000110: ae0b 78be f79e 0e3e d2e1 803c 03bc 8c3d
00000120: 6272 00be 0a08 93be 8cd8 303e d429 cd3d
00000130: 5d43 92bd 0929 30be 3a98 5d3c 7d14 c13b
00000140: 881f 78bd eb20 40be df7d a7bd 657f 4a3e
00000150: 7606 ab3d 35ba 0a3c 266d 043e 71e3 513d
00000160: 63d6 1d3e 2751 093e c6ba 4e3e e683 cebd
00000170: 0edc ce3d 37c7 e2bd 3c8d 923b 46f2 14bb
00000180: 90db 1ebe 3f8e a03d e697 d5bd e758 383d
00000190: d78f e3bb 09be 393d 60a8 283d 69bf 853d
000001a0: 7995 eabc fcf6 843c b5af 253e 55f5 af3d
000001b0: 434f e6bd affb a53c deb4 ec3d d829 07be
000001c0: be53 3abe f01c 2ebd ade5 9e3c 3387 1cbe
000001d0: 8957 e73c bef2 0dbe 0214 7e3d b4b3 00bd
000001e0: 8656 473c 50fa 37bd 3516 a93d d07b e43d
000001f0: 2677 763b 0083 843d b4a7 e03b 373a e7bd
00000200: 2cdb 1cbe 404c 503e fa7c c23c d475 abbd
00000210: 1da5 a13d d7f6 51bb cf4d 05bc 82ec 05bd
00000220: 322f d33c 8b91 46be 1626 e5bd 479b 12bd
00000230: ad13 a3bd 8cd2 453e abc3 7c3e 0f98 1fbd
00000240: 4435 7d3d 1c03 3fbe a494 09be 3a0b 7e3d
00000250: e14f aebd 2f80 eebd 07f5 c1bc bba4 c3bd
00000260: 0be1 aebd e99d 99bd a181 213d d2c1 79bd
00000270: 32ca 4a3d 73f7 b5bd 24ef 493c 5b97 e93c
00000280: c91d db3c ec2d c63d c883 ed3d 7312 93bd
00000290: 36a6 6e3e 6456 243e e5c8 053e 8a18 973e
000002a0: 01ed 123d 1a8a 9bbd a65e 003e d409 f6ba
000002b0: e1e9 36be aaf1 40be dcef 5fbe 5c51 86bd
000002c0: 5032 663d da2f b6bd 640e b43d c55f d1bd
000002d0: 5c69 2c3d 0e28 58bd a886 af3d c0cc 21be
000002e0: 08ec 163d 4ab0 31bd 9172 42be 39f5 593e
000002f0: db83 d33c dd79 1e3e 643a ecbd 81e8 9d3d
00000300: 1926 afbd 792d 353e 5656 49bd 5dc4 53bd
00000310: 9d3d 39bd d2bf e43d f6dc 9fbd 8872 8abd
00000320: 0a71 2e3e e421 513d 10bb a43d 29df f0bd
00000330: 2377 6a3d b759 8a3c 801e 083e dfc5 ab3c
00000340: 55bb 09bc 01c2 c83b 6474 edbd 7b6c e73d
00000350: dbf7 b2bd cea3 f5bc 6997 203d 53c6 6fbe
00000360: 831e 49ba 2554 433d 17e0 463d e832 9cbe
00000370: 505b 87bd 5905 02bd 355a a2bd 7659 b13d
00000380: 6da8 7b3d 9445 9c3d cbb1 80bd f429 0bbe
00000390: db20 b73d 4db4 0a3e 2353 8bbc cdc9 4cbd
000003a0: 813c e1bd 90aa 2ebe 46b5 41bd bd94 383e
000003b0: 803e 1bbe 087f 2b3d a01f 0cbe 6813 e5bd
000003c0: 9dab ddbd ccbe 503d b0a5 173e ca68 d7bd
000003d0: 5938 343e 21bf 44be fb6b 18be 4732 6abd
000003e0: 3b51 ea3d c0a6 cd3d 15e5 b43d c3ad 623d
000003f0: c0bc 39be 98f2 c2bd a116 053e c137 323b
0.11726741 -0.19698147 -0.19007519 0.10173972 -0.18905659 0.06289015 0.18786754 -0.09465089
0.08859783 0.04308949 0.037594814 0.0061253123 0.046713665 -0.19594795 -0.076184675 -0.16064957
0.03176777 -0.13887903 -0.046859134 0.1807492 -0.009515159 -0.1524921 0.20642371 -0.10116844
0.12629266 0.15299354 -0.1411362 -0.0893405 -0.05546033 -0.05360684 0.18268979 0.10528233
-0.010307058 0.05428943 -0.08845047 0.21068867 -0.087380275 0.14626192 0.023271797 -0.12503035
-0.10048472 -0.0017878291 0.06373561 0.16205662 0.1065874 0.045354977 0.23920992 -0.0957962
-0.13100265 -0.0656465 0.183857 0.110026486 -0.25967315 0.10947403 0.07305188 -0.23236084
-0.18712367 -0.118797675 -0.014125662 0.05285497 -0.19967756 0.22026154 0.042129636 -0.036466405
-0.17999664 -0.06301402 -0.1676938 0.047240593 -0.24223205 0.13927828 0.01573268 0.06871798
-0.12543634 -0.2871707 0.17270106 0.10017744 -0.07141755 -0.17203154 0.013525063 0.005892335
-0.060576946 -0.18762557 -0.08178305 0.1977516 0.08350842 0.008467247 0.12932262 0.051242296
0.15413813 0.13409863 0.20188436 -0.100837514 0.10100566 -0.110731535 0.004472403 -0.0022727414
-0.15513444 0.07839631 -0.10429363 0.04500666 -0.0069446373 0.045347247 0.0411762 0.06530649
-0.028635727 0.016231053 0.16180308 0.08591715 -0.11245587 0.020261614 0.11557935 -0.13199556
-0.18196008 -0.042508066 0.019396627 -0.1528595 0.028239982 -0.1386213 0.0620308 -0.03142138
0.012166625 -0.04491645 0.08256189 0.11156428 0.003760764 0.06470299 0.0068559293 -0.112904005
-0.15317982 0.20341587 0.023741234 -0.08372083 0.07892821 -0.0032037997 -0.008136227 -0.032696255
0.02577934 -0.19391458 -0.11188905 -0.035792615 -0.07962737 0.19318599 0.24684016 -0.038963374
0.061818376 -0.1865353 -0.13435608 0.062022425 -0.085113294 -0.11645543 -0.023676408 -0.09552904
-0.08539017 -0.07500822 0.039430264 -0.060975857 0.049509235 -0.08885088 0.012325082 0.028514555
0.026747601 0.09676728 0.11597401 -0.07181253 0.23305592 0.1604858 0.13064916 0.2951091
0.035870556 -0.075947 0.12536106 -0.001877124 -0.17862655 -0.18842188 -0.21868843 -0.06558487
0.056200325 -0.08895846 0.08791807 -0.10223345 0.042092666 -0.052772574 0.085706055 -0.15800762
0.03684619 -0.043381013 -0.18989016 0.21284951 0.02581971 0.15476175 -0.11534575 0.07710362
-0.085521884 0.17693128 -0.049154602 -0.05170094 -0.045224775 0.11169399 -0.07805817 -0.06760126
0.17035308 0.05105771 0.08043492 -0.117613144 0.057242524 0.016888482 0.13292885 0.020968376
-0.00840648 0.0061266427 -0.115944654 0.11299988 -0.08738681 -0.029985335 0.039206896 -0.23415498
-0.0007672088 0.04768767 0.048553552 -0.30507588 -0.06609213 -0.03174338 -0.07927362 0.086596414
0.06143992 0.076304585 -0.06283911 -0.13590223 0.089418136 0.13545342 -0.017007416 -0.04999714
-0.10997868 -0.17057252 -0.047292016 0.18025489 -0.1516056 0.041869193 -0.13683939 -0.11185342
-0.10823748 0.050963208 0.14809299 -0.10518034 0.1759962 -0.19213535 -0.14884941 -0.057176854
0.11441275 0.10041571 0.088327564 0.055341493 -0.18138409 -0.09518927 0.12996913 0.0027193876

actor.2.weight f4 [128, 256]
00000000: 9fce 253d 5e56 f1bd 96ea 4d3d 6d09 eabc
00000010: 83d8 463d b937 36bd 0ce9 c6bd 15af 753d
00000020: e99e 8a3b dfe1 11be 68f6 f4bd 0042 3fbb
00000030: 9e44 23bd 2f3a 39bd c20d d8bd 92df db3d
00000040: 3d8f 73bd 4389 21bd f4e6 333e 466f 833d
00000050: b258 ca3d d08d 063e d75f 99bd 1b3d eebd
00000060: 3fea a93d f938 293d 5126 0abd 2984 7f3c
00000070: 17ee afbc d5b8 c23c 419f 08bd 01ce dfbd
00000080: eb11 f8bc 902d ce3d c5fe 1a3c 4bdd d1ba
00000090: a27b 833c 2491 7abd af16 933b 1414 0bbd
000000a0: 35f4 52bd aee6 6abd 1411 b53c ff4f d0bd
000000b0: 32c7 483d b975 ab3b a496 fbbd c188 14bd
000000c0: f9ca 9d3d cd00 933d 967e b9bb ac02 6dbb
000000d0: f650 37bb 19dd 9bbd 6316 b13d 7f7f b6bc
000000e0: c226 8abd 6530 a0bc 98da 8f3d 8eb2 2fbc
000000f0: 16d1 ea3d a931 07be 0e80 0c3e 9a6f 3bbe
00000100: f556 23bd 0ba7 983c f360 b7bd 3241 0ebc
00000110: 6c13 e8bc 14c7 90bb be06 62bd c6b2 813a
00000120: c13e fcbb ffc1 093c dbcf 9dbc a6d3 00be
00000130: 1a58 abbd 51f4 af3b 98ee c23c 3ed3 d53d
00000140: 57e6 bcbc 7848 8d3c c760 ca3c 369d a93c
00000150: 0b30 2cbe 8771 babd c782 033e 6994 69bb
00000160: 5430 70bc efb8 e6bd b282 b0bd c864 00be
00000170: 4b19 533d 8e80 c4bd 707d 983d 8132 9a3e
00000180: 274f 02bd 969e 92bc eab2 58bc 45ee 3bbe
00000190: ecbf ff3d 8beb f1bd 8de2 433d e47a 83bd
000001a0: 0c23 913c a8ca c0bd 710f a0bd 4aba e9bd
000001b0: e9b1 59bd 7f6b 1fbd a4e8 f13c dca5 973b
000001c0: a1ca 98bd b6c4 abbc 3fd6 723c 5758 b33b
000001d0: d111 463d 5afd 18be 45b8 e03c 97c9 23be
000001e0: 44e9 73bd 4519 dd3d a013 093d 4255 86bd
000001f0: 2971 343d 2d9a b9bd bcbd e2bc 2b1c 5fbd
00000200: d44e 8c3d 41e5 9bbd 9780 f9bc 0b52 92bd
00000210: 0f4a e33c 6811 4d3d c0e0 993d 3d59 003d
00000220: 8c68 9f3c 0afd 8dbd 44f5 043d 63d3 cabd
00000230: abec 94bd 53e0 d93d 9603 1d3d 05c2 00bd
00000240: 0306 a2bd bf22 b03c 672d 873d 2e43 04bd
00000250: 2c53 5c3d c685 a83d f383 c73c d608 e03d
00000260: 9c13 10bd 5eaa c6bd ae3b cf3d a841 313d
00000270: 90c1 103d e686 ccbc 4faf f1bd 3e48 3bbb
00000280: 7fd8 063d dfc2 fdbb a251 83bb e076 253d
00000290: ec33 213e de26 0f3e e52d 433c 1c1d 9b3c
000002a0: 4f70 253d f9a9 07bd e263 833c 6568 863d
000002b0: a370 b9bd 5c7e 80bd ef7e aabd 0b3d fbbd
000002c0: 0b47 683d 3b5c 7e3c 5f2e 60bd c9e6 7abd
000002d0: db9c 1a3d 1bb2 d83b 5334 493d 98df 28be
000002e0: 29f0 e33c 4006 95bc 2e02 42be 15a3 b93c
000002f0: f503 7a3d 9213 09be 7f13 7b3d d741 b63d
00000300: d1c1 573b 5e9b 283d cc30 173d a259 963d
00000310: 7386 13be e675 ea3c 5d90 2a3e 308b 5a3d
00000320: 5d23 f6bc 8b02 ba3c 9555 163b e451 c03c
00000330: 8ecf f33b bf45 d4bd cef5 273d a557 2ebe
00000340: a141 ad3d fce4 35bd 8f58 c73d 117b e2bc
00000350: 3e98 2fbd 5120 803d 116a 0f3d 8eff 7b3d
00000360: 842c ea3d 088a 8ebd 3894 cd3c 3356 5c3d
00000370: 3217 1fbe 8ee2 8f3d b5c8 1b3d 8893 c0bc
00000380: 66cf 813d 6623 8f3d 4784 cfbd 5354 113d
00000390: af44 943d 4915 09be bb89 0b3e 879f 9abd
000003a0: 3429 85bd 5dd1 12be 18a2 d1bc 06ee a8bc
000003b0: 8616 ebbd 212a d7bc 2a10 87bd 1578 1f3d
000003c0: bf26 a73c a9cf b3bc 6f6a cc3a 24b8 853c
000003d0: 9ae1 c53d 985b 9abd 6a24 c2bd 5b9a 8f3b
000003e0: 8efe de3d e3bf 7e3c 6605 0abc 53c5 36bd
000003f0: 4846 20bd a9e5 dcbd dc7f 073c 0749 843c
0.040480252 -0.11784051 0.050272547 -0.028568948 0.048546325 -0.044486735 -0.09712419 0.059981424
0.0042303693 -0.14246319 -0.11961061 -0.0029183626 -0.03986036 -0.045221504 -0.10549499 0.10736002
-0.059462775 -0.039437544 0.1756857 0.06417708 0.098801985 0.13140035 -0.07488983 -0.11632749
0.08296632 0.0413141 -0.033727948 0.015595474 -0.021475835 0.023769775 -0.033355 -0.10927964
-0.030281981 0.10067284 0.009460156 -0.0016011385 0.016050164 -0.061173573 0.004488788 -0.033954695
-0.051502425 -0.0573489 0.02210287 -0.10171508 0.049018092 0.0052325395 -0.12284592 -0.03626323
0.077047296 0.07177887 -0.005660842 -0.0036164923 -0.002797184 -0.076105304 0.08646848 -0.022277592
-0.06745674 -0.019554326 0.07024115 -0.010723723 0.11465661 -0.13202538 0.13720724 -0.18304291
-0.03987785 0.01863434 -0.089540385 -0.008682536 -0.028329574 -0.004418263 -0.05518221 0.0009895198
-0.0076979105 0.008408069 -0.019264152 -0.12580737 -0.083664134 0.005369701 0.023795411 0.10440682
-0.023059053 0.01724647 0.02470435 0.020704847 -0.16815202 -0.09103685 0.12842856 -0.0035641438
-0.01465996 -0.11265742 -0.08618678 -0.12538445 0.051537793 -0.09594832 0.074458 0.30116656
-0.031813767 -0.017897885 -0.01322625 -0.18352611 0.12487778 -0.118125044 0.047823478 -0.06419924
0.017716907 -0.094136536 -0.07815445 -0.11412485 -0.053148184 -0.038920876 0.029529877 0.0046279263
-0.074605234 -0.020967823 0.014821588 0.0054731774 0.048356835 -0.14940396 0.027431617 -0.15994869
-0.05954863 0.107958354 0.03346598 -0.065592304 0.04405323 -0.0906261 -0.027678363 -0.054470222
0.06850973 -0.07612086 -0.030456824 -0.07144555 0.027745275 0.050065428 0.07513571 0.031335104
0.019459032 -0.06933029 0.032460466 -0.099036 -0.07271703 0.106384896 0.038333498 -0.03143503
-0.07911303 0.021500943 0.06600457 -0.03229063 0.053790256 0.0822864 0.02435491 0.10939185
-0.03517495 -0.09700464 0.10118805 0.043275505 0.035340846 -0.024966668 -0.118010156 -0.0028576995
0.03292131 -0.0077441777 -0.004007534 0.04039657 0.15742463 0.1397967 0.011912798 0.018934779
0.04039031 -0.033121083 0.016038839 0.065628804 -0.09054687 -0.06274101 -0.08324992 -0.122675024
0.056708377 0.015524919 -0.054731723 -0.06125525 0.037747245 0.0066130287 0.049122166 -0.16491544
0.027824478 -0.018191457 -0.18946144 0.022660771 0.06103893 -0.13386372 0.06129789 0.08899277
0.003292192 0.041163795 0.03691177 0.07341315 -0.14406757 0.028620671 0.16656633 0.053355396
-0.03004616 0.02270629 0.0022939194 0.023476548 0.007440514 -0.103648655 0.041005902 -0.17025621
0.08459783 -0.04440783 0.09733688 -0.027646573 -0.0428698 0.06256164 0.035013262 0.061523013
0.11434272 -0.06959921 0.02509509 0.053793143 -0.15536192 0.07025634 0.038033206 -0.023507848
0.06338386 0.069891736 -0.10132652 0.03548081 0.07239663 -0.13387026 0.13626759 -0.07549959
-0.065019995 -0.14337678 -0.025589988 -0.02062131 -0.114789054 -0.026265206 -0.0659488 0.03893288
0.020404218 -0.021949606 0.0015595685 0.016323157 0.09662171 -0.07537001 -0.09479602 0.0043824143
0.10888396 0.015548679 -0.008424139 -0.044621777 -0.039129525 -0.10785992 0.00827023 0.016148103

actor.2.bias f4 [128]
00000000: d2b4 7cbc a816 19bd fba3 12bd 762f bb3c
00000010: da03 8fbd 840b 4c3d c8d8 813d d4af df3c
00000020: 39ff 5dbd 56b8 873c 0e08 113d 1dee 42bd
00000030: 2474 e63c c15d 19bd f2a2 9ebd 278e 37bd
00000040: e50f 45bd 9581 f23c cb0e e6bd 4169 50bc
00000050: 303c 95bd b8f4 56bd 8178 a2bd d10e 86bd
00000060: 9255 eabd c5d5 9f3d a543 e3bc e721 213c
00000070: a32d 3c3c c7f8 a3bd f11d 823c 1eb8 eb3c
00000080: 7ab8 80bd f1f7 0cbd 7970 c8bd 9ec0 d03c
00000090: 3211 4cbd f8c4 b7bd 057e 893d 2c2a ecbd
000000a0: 2ef8 e8bc 07fc 0ebd da4b 303d b5cf 7abd
000000b0: cf38 07bc b3a7 1e3c d45d 9a3c fa46 83bd
000000c0: 5b58 fc3a ce50 f93c 3b88 ab3d 4b89 ebbc
000000d0: 9768 f2bc f47f 09bd 5f8d a1bc 16be 7cbd
000000e0: 587b 8bbd 282e 343a d459 bbbd 8e86 e7bb
000000f0: feb4 3e3c 3f24 44bd e59b 9f3b b6e4 debd
00000100: 573f aabd ce98 8ebd 8121 8fbd 7a97 b2bd
00000110: 6dae c0bc e03e 09bd 89bc dcbd e43a 82bc
00000120: 46ba 98bd e517 2fbd da33 88bd f43a 703c
00000130: cc59 9abb eca3 5bbd 60eb 193d b8b7 a4ba
00000140: 52d9 bebd d021 71bd 9fe8 14bd 0da9 2fbe
00000150: 88e5 c7b9 6c18 363d 639e dbbb 2753 60bd
00000160: f055 b2bd a7f4 bebd fd17 1e3d bdcc 9ebd
00000170: b0fe d13c 711a 0ebd ba72 a83d 2c7d 3a3c
00000180: c619 5ebd 4ab1 07bc 0734 9dbd 7a8e 5c3c
00000190: 5d66 87bd 15eb 613d 3504 dc3c 3dd2 0cbe
000001a0: 1b7e 2c3d 2e70 c0bd 99a3 0ebd a701 b63b
000001b0: d9a8 473d feb6 2ebe b80a e63c 489b 01bc
000001c0: 00a7 8dbd 4dec 81bd 2685 073c 7325 26bd
000001d0: 3abf bdbd 83fd d0bd e7dd 89bd d85b 593b
000001e0: 41a4 b8bd 6610 11be 67df 01be 5228 b1bc
000001f0: 174a ca3c 577c debd 3127 b7bc 71fc 6cbd
-0.01542397 -0.037375122 -0.035800915 0.02284978 -0.069831565 0.04981567 0.06340176 0.027305521
-0.054198477 0.01656739 0.035408072 -0.047590364 0.028131552 -0.037442926 -0.07745923 -0.0448133
-0.04811086 0.029602805 -0.1123329 -0.012720407 -0.072868705 -0.052479476 -0.079331405 -0.06545795
-0.114421025 0.07804445 -0.027742216 0.009834743 0.01148549 -0.08006435 0.015883418 0.028774317
-0.06285186 -0.034416143 -0.097870775 0.025482472 -0.049821086 -0.08973116 0.067134894 -0.11531481
-0.028438654 -0.03490832 0.043041088 -0.06123324 -0.00825329 0.009683537 0.018843569 -0.06410022
0.0019252406 0.030434038 0.08375593 -0.02875199 -0.029590888 -0.03356929 -0.019720731 -0.061704718
-0.06810635 0.0006873333 -0.09147993 -0.0070656007 0.011639832 -0.04788613 0.004870879 -0.10883467
-0.08312862 -0.06962739 -0.06988812 -0.08720298 -0.023520673 -0.033507228 -0.10778148 -0.015897222
-0.07457404 -0.042747397 -0.06650515 0.014662493 -0.0047104117 -0.053623125 0.037577987 -0.001256696
-0.09318794 -0.058870137 -0.036354657 -0.17154332 -0.00038127252 0.044456884 -0.006702231 -0.0547668
-0.087077975 -0.093240075 0.038597096 -0.077538945 0.02563414 -0.034693185 0.08225007 0.011382382
-0.0542238 -0.008282015 -0.07675939 0.013461703 -0.06611321 0.055155832 0.026857475 -0.13752075
0.04211245 -0.093963966 -0.034823988 0.005554396 0.04874501 -0.17061993 0.028081283 -0.007910557
-0.06916618 -0.06343899 0.008271491 -0.040563058 -0.09264989 -0.102046035 -0.06731778 0.0033166315
-0.09015704 -0.14166412 -0.12682877 -0.021625672 0.024693532 -0.1086356 -0.022357555 -0.057857934

actor.4.weight f4 [3, 128]
00000000: 2d23 78bd d1b5 003e da61 0dbe 196a 39be
00000010: 9da9 c9bc ac6c 143e de90 75bd 77cc c73d
00000020: c6bc 09be ac30 ec3d ff5d d0bd 56cf 80bd
00000030: 6f72 fd3d dc88 47be 3a26 183e 0081 49be
00000040: d995 5c3e 8565 b63d 53ed dc3d 3ab2 033e
00000050: d61f 2e3e 633f 063d 8c4c 35bd db6e 063d
00000060: 7ad5 1fbe 04c0 4b3e e129 033e b28d d1bd
00000070: 68c5 9e3d e26b 99bd 7690 b43a 41b7 a6bd
00000080: 46f0 04be f218 5d3d c28a e4bd c9e7 c03d
00000090: 4a04 a93d 5cc9 c83d 7aa5 f7bc 7478 5f3e
000000a0: 676f 40be 4b39 d03d 93be 00be 1605 d13b
000000b0: 21ff bd3d 5e73 eabd 6551 c83d 022c 833c
000000c0: dd48 0ebe 9f9d fa3d fdb6 153e b455 4b3e
000000d0: cbd0 1d3e e654 5a3e 6c0d efbd 34e4 413e
000000e0: d0d7 64bd 131a 27be 5b97 d33d 4048 f23d
000000f0: 4703 dfbd 4de2 06be f707 2f3d f0ff 293e
00000100: 5878 06be 3483 413d 55d3 63bd d749 42be
00000110: 126c bebb 106c b3bb a33b 39be 22aa 14be
00000120: ad69 6abd 66ad 22be 2385 063e 11ce 853e
00000130: 4b6e 41be ab02 163e b8bc a1bc c0a4 2d3e
00000140: 88cb 68be 1315 083d 3e06 283e 5476 673d
00000150: 82c4 733e 62f7 ec3d f86b c6bb b0d3 913d
00000160: caa5 323c c266 223e 5c17 1e3e f3a9 873b
00000170: e230 fbbc b2f8 3fbe fc01 d63d 5431 4fbe
00000180: 1b43 15be 5312 c93d c335 24be 4674 cbbd
00000190: c6f8 3dbe eab9 afbd 71d0 283e a07f 83be
000001a0: e913 2c3e 6e18 993d e742 20be 34fc 603d
000001b0: 781e be3d 861a 8e3e b7b5 ccbd 8dcd 2ebd
000001c0: 6a08 1fbe dd1b 6b3e 1b65 863c 74f3 513e
000001d0: 1bee 7d3e af42 c6bd 39ea e83d ef26 5a3e
000001e0: 72d4 03be aa89 e7bc e58d da3d 9c96 0dbe
000001f0: 98db 16be c0ee cd3d 70cf 6cbe 9ed1 db3c
00000200: b96d bf3d 3f1d bd3c c403 dbbd e983 4bbe
00000210: e299 163e 599a af3d e4c1 74be a372 22bd
00000220: a7c4 8ebb e3ef 3a3e 07b7 d9bc 814d 49be
00000230: 6220 e53d a6f2 acbd 8536 b13c dbac 343d
00000240: e723 f63c 2d02 10be 592b 69bc 1a17 c9bd
00000250: 9d97 eb3d 4719 123e e484 4fbe f6ff 3ebe
00000260: 7c9f 543d c516 ca3d 9803 c4bc 1ef2 28be
00000270: 82ed 10be 45a4 2a3e d6cb d6bd 491a 323d
00000280: a891 33be 234b 863e 7aa8 063e c8b1 e1bd
00000290: d9b7 863e 2995 863e a820 5ebc 852e 09be
000002a0: 95d0 cc3c 1aef c1bd 995a fa3d 6097 32be
000002b0: 8f52 233e 8627 d8bd 7695 eebd b76c 6f3e
000002c0: 467f f63d 6a69 18be 3187 823c 10b4 1cbd
000002d0: 1052 1a3e fbd5 943d c6a5 3ebe 31de a73d
000002e0: ef28 163e 7b69 223e 3b1e 9f3d a1ff 19be
000002f0: 1380 cfbc 2fe2 1ebe 15b7 9fbd 6f41 e23d
00000300: 379e 10be c113 d6bd dd1b 453e 0673 72bb
00000310: 1b76 2b3e 4fbe 55be 38b8 3dbe 7cc0 f03d
00000320: 89e4 37be 602d 1abe 3b77 393e a9ec 0a3c
00000330: cde2 423e 8e17 673d f437 0fbe 0bd3 e3bd
00000340: 78a7 a7bd 0844 eb3d 9fe4 7bbd ab28 813e
00000350: fdaa df3d 3895 1abe bc19 45be 03f4 19bd
00000360: ae18 16be cdb3 83be 9388 32be 2ae8 90be
00000370: 5497 17be 947f 8a3c 36c6 94bc b7ee 773d
00000380: 78d5 2f3e 4507 783e e5e6 a53d fb50 0ebe
00000390: 8af7 ffbd db94 1ebe dda6 493e 8944 0cbe
000003a0: fdfd e8bc c637 af3d fa70 b2bd 7c81 cc3d
000003b0: bd88 bdbd e5b4 043d b3b2 21be 1cdf b6bd
000003c0: dee8 093e d95d af3d e6b1 183e 2126 ca3d
000003d0: f541 17be 76bd 783e 40f8 27be f64e 523d
000003e0: 9bcb 5fbd 4d23 993e beb9 44be 13e8 a2bd
000003f0: fd08 1bbe a9da 5f3e 160e e63d 8583 30be
-0.06058042 0.12569357 -0.13806859 -0.1810688 -0.02461701 0.1449458 -0.05995261 0.097557954
-0.13450918 0.11532721 -0.10174178 -0.06289546 0.12375342 -0.19485801 0.14858332 -0.19678116
0.21541537 0.08906082 0.107874535 0.12860957 0.17004332 0.032775294 -0.044262454 0.032820564
-0.15608779 0.19897467 0.12808944 -0.10232104 0.07752496 -0.0749128 0.0013775963 -0.08140422
-0.12982282 0.053978868 -0.111592785 0.094192095 0.08252771 0.09804031 -0.030230273 0.21823293
-0.18792497 0.10167178 -0.12572698 0.00637878 0.092771776 -0.11447786 0.0978115 0.016012195
-0.13894983 0.12237095 0.14620586 0.19856912 0.1541168 0.21321449 -0.11672482 0.18934709
-0.055869877 -0.1631854 0.10331603 0.11830187 -0.10889297 -0.13172264 0.042732205 0.16601539
-0.13131845 0.047244266 -0.055621464 -0.1897348 -0.005811223 -0.0054755285 -0.18089156 -0.14518026
-0.057229687 -0.15886459 0.13136725 0.2613378 -0.1888973 0.14649455 -0.019743308 0.16957378
-0.22733891 0.033223223 0.16408631 0.05650933 0.2380543 0.11570622 -0.0060553513 0.07120454
0.010903785 0.15859511 0.15438598 0.0041401326 -0.030662958 -0.18747213 0.10449597 -0.20233661
-0.1457638 0.09817948 -0.16036133 -0.09934287 -0.18551931 -0.08580382 0.16485764 -0.25683308
0.1680447 0.07475363 -0.15650521 0.05492802 0.09283155 0.2775461 -0.09995597 -0.042676497
-0.15530553 0.22959848 0.016405633 0.20503026 0.24797861 -0.09680688 0.113727994 0.21303914
-0.1287401 -0.028263886 0.106715955 -0.13826984 -0.14732206 0.100553036 -0.23126006 0.026833352
0.093471 0.023085235 -0.106940776 -0.19874538 0.14707139 0.08574361 -0.23902088 -0.039660107
-0.004356939 0.18255572 -0.026576532 -0.19658472 0.11187817 -0.08444719 0.021632442 0.04411016
0.030046416 -0.1406333 -0.014231526 -0.098188594 0.11503527 0.14267455 -0.20265538 -0.18652329
0.05190991 0.09867624 -0.023927495 -0.1649861 -0.14153102 0.16664226 -0.10488097 0.0434821
-0.17536032 0.262292 0.13150206 -0.11020237 0.2631214 0.26285675 -0.013557591 -0.13396652
0.025001803 -0.09469433 0.122243114 -0.17440557 0.15949462 -0.105544135 -0.11649601 0.23381315
0.12035994 -0.14883962 0.015933605 -0.03825766 0.15070367 0.07267376 -0.18617925 0.081966765
0.14664052 0.1586055 0.07769438 -0.15038921 -0.025329625 -0.1551597 -0.07798592 0.11047637
-0.14122854 -0.104529865 0.1924891 -0.003699483 0.16744272 -0.20873378 -0.18527305 0.117554635
-0.17958273 -0.15056372 0.18111889 0.008479276 0.1903183 0.056418948 -0.13986188 -0.111242376
-0.08186239 0.11487585 -0.061497327 0.2522634 0.10921285 -0.15095985 -0.19248098 -0.037586223
-0.14657852 -0.25723115 -0.17434911 -0.28302127 -0.14803821 0.016906537 -0.01816092 0.06053039
0.17171276 0.24221523 0.0810068 -0.13898079 -0.12498386 -0.15486471 0.1969256 -0.13698019
-0.028441424 0.0855556 -0.08712955 0.09985635 -0.092545964 0.032399077 -0.15790825 -0.089292735
0.13467738 0.08562822 0.14911613 0.09870554 -0.14771254 0.24291024 -0.16403294 0.051344834
-0.054637533 0.29909745 -0.1921148 -0.07954421 -0.15140148 0.21860756 0.112331554 -0.1723767

actor.4.bias f4 [3]
00000000: 9cd5 7cbd c469 823d c67c 76bd
-0.06172715 0.063678294 -0.060177587

critic.0.weight f4 [256, 42]
00000000: 593e 19be 5ad7 64bc 4df7 433d b70e 883d
00000010: 88b6 0b3e f77d 053e aad5 dc3d 1f8b 463d
00000020: 41b6 153d 5635 d13d fc45 7bbb 3d2c 16be
00000030: c483 b93d 3eb5 773d 77eb 733d 8a2f f5bd
00000040: 62c9 003e c987 46bd 381b 833c fc2f fc3c
00000050: f7dc 823d 0e13 9abd 13c1 7fbc f56a 62bd
00000060: b00f a4bd 3117 f93d 2651 163e df59 9fbc
00000070: 05b6 fabd 67df 70bc e096 883d 009a 883c
00000080: fed1 ed3d 27ce 033e ee9d c2bc 3acd 1e3d
00000090: c82c 0f3e d093 0b3e d01a 933d 6a8e 77bd
000000a0: fdac ad3d c799 1b3e a8ef db3d 6a68 b3bd
000000b0: 5e4f 713d 5f0f 343d 0879 443c 223c b03d
000000c0: cc12 1cbe 147e ee3d 34ce 613c e2fb dc3d
000000d0: 41ac b0bd dea5 863c 1c4c 853c 6a0a 88bd
000000e0: 9e53 a5bd 027d 843d 33c3 e3bd 412b cd3d
000000f0: f298 cbbd cc00 873d 2bfe c3bc 0f98 eeba
00000100: afc4 0bbe ea83 f63d 8cfc 0e3e 5003 73bd
00000110: 715f 0b3e d289 86bc a5c7 dbbd 5828 e33c
00000120: f1b5 17bd 5649 2e3d b77f 55bd 9733 febb
00000130: e818 e13d 9398 11be 033f 3d3c 2db7 cc3d
00000140: 600f 1cbc 985d a2bd 629c b43d 4422 003e
00000150: 0669 0c3e c150 12bd 69a3 93bc 57df c0bc
00000160: 481c f43d 0619 60bd d7fd 053e 6fe2 dabd
00000170: 4e72 c9bc f7ab 173e df0c e2bd 18aa fe3c
00000180: fefe e93d 445d de3d 725d eb3d e410 b5bd
00000190: 50ac c7bd a33f 7dbd 5534 a4bd 0a1b 1b3c
000001a0: b336 cfbd 5338 89bd d85b 893c 5c26 ae3d
000001b0: edab 9cbd 5e33 94bd 2800 2e3d 8fb6 203d
000001c0: 45a6 debd 05e6 8d3c cc19 143e ca3e 11be
000001d0: 5244 dbbd 7dc5 68bc f9e7 e03d 3390 01be
000001e0: 94a9 e93d 6333 123e 4345 1cbe 1763 1a3d
000001f0: 1ac2 9a3d f592 d3bd a7fd 2d3d 0a8d 573b
00000200: 5b1e fc3d 47b7 0a3d 8b0a b03d d005 e0bc
00000210: 677a 05be 20f7 063e 1ece 92bd c5bd bdbc
00000220: e9be cd3c 1157 a9bb a9c1 cdbd 2a43 1b3e
00000230: 8bf3 363c ab13 0fbe fc23 0d3d b7b5 92bd
00000240: c4b4 443d db17 173e ef56 b8bd 6c95 fa3c
00000250: 3eec 25bd dd82 ebbd 79ed 98bd 7c01 87bc
00000260: 22a3 813d 5d2e d2bd 4ae8 fc3d e5ee fc3c
00000270: cea6 b93d 27c8 afbd fc06 2e3d 326e b83d
00000280: 7a04 ed3d 6539 8b3d 53bd a4bd f5e5 90bd
00000290: 998f 0cbe 650d 183d 1738 03bd f7ff b8bd
000002a0: c50f 04bd 50c6 13be 7b6a 3a3c 2bc7 a63d
000002b0: 5abe ef3d f8c2 2cbd f4e8 9e3d 1c2c e03d
000002c0: 6a09 c2bd 5a9a 18bd 5437 3a3c ddd0 afbc
000002d0: 5032 e5bc 25c4 25bd dab1 7c3d 3899 b4bc
000002e0: d3e1 76bd 1b0d ddbd 73ec b1bd 8ca7 c9bd
000002f0: 4e34 b4bd 25bf 543c ce5f 843d a0aa 09be
00000300: fed6 073e f672 1a3e 839a fbbd 94bc 783d
00000310: 03d5 34bc a50e d9bb 1a73 d43d 1cc2 b63d
00000320: dd3f 8cbd 3813 cd3d 0cec 0bbe ecbf 3cbd
00000330: 450d e63b 3893 c13c 54e1 4ebd 611f c6bd
00000340: dc3b a2bd 5428 bebd 35c7 a93d 7cab dabd
00000350: d965 bc3d b953 e53d d04f a9bb 7383 edbd
00000360: e9a3 dcbd 44d9 90bd 5789 65bc f087 153e
00000370: d5e7 f8bd ee26 dfbd 4fbb c7bd 4bac 24bc
00000380: ea7c 813d 6614 a03d a327 5f3d f96f 4e3d
00000390: 29b6 013d 16c5 9fbd 4161 013e 6f3c c03d
000003a0: 7a83 043d 44c7 b13d a9bc 59bd 951f 063e
000003b0: 83cc 143e e41a 0cbb 3b59 073e 5642 be3d
000003c0: 2415 543d 5fe9 d93d 6cd8 c03d 1bc5 153e
000003d0: 0e3d 69bd 21da 5d3c 1552 efbd ab88 943d
000003e0: 835d 92bd 19b7 ab3c 62f6 983d 90b0 01be
000003f0: 4cb5 1cbe d009 afbd 10a6 fd3d 42b6 a23d
-0.1496519 -0.013967359 0.047843266 0.06643432 0.13643849 0.13036333 0.10782941 0.04847252
0.036550764 0.10215251 -0.0038341274 -0.14665313 0.090583354 0.06047558 0.05955073 -0.11971958
0.12576821 -0.04846934 0.01600419 0.0307846 0.06389802 -0.07523166 -0.015609997 -0.055277783
-0.08010805 0.121626265 0.14679393 -0.019452034 -0.12241749 -0.014701701 0.06669402 0.016674995
0.116123185 0.1287161 -0.023756947 0.038769938 0.13981926 0.13630605 0.071828485 -0.06043855
0.084802605 0.1519538 0.1073907 -0.0876015 0.05891358 0.04395997 0.011991747 0.086052194
-0.15241545 0.11645141 0.013782073 0.1079023 -0.08626605 0.016436514 0.016271643 -0.06642611
-0.08072589 0.06469156 -0.11121216 0.10018016 -0.099412814 0.06591949 -0.023924908 -0.0018203276
-0.13649248 0.12036879 0.13963526 -0.05932933 0.13610627 -0.01642314 -0.107314385 0.027729198
-0.037038747 0.042550407 -0.05212375 -0.007757615 0.109910786 -0.14218359 0.011550668 0.099958755
-0.00952515 -0.07928008 0.0881889 0.12513071 0.13711938 -0.035721544 -0.018022256 -0.023543997
0.11919457 -0.054711364 0.13085113 -0.1068772 -0.024590638 0.14811693 -0.11037611 0.031086966
0.11425589 0.10857633 0.11492433 -0.08841112 -0.09749663 -0.061828267 -0.08017794 0.009466896
-0.10117855 -0.06700196 0.016767427 0.0850341 -0.0764998 -0.0723636 0.042480618 0.0392366
-0.10871557 0.017321596 0.14462966 -0.14184108 -0.107063904 -0.014207241 0.10981745 -0.12652664
0.114092976 0.14277415 -0.15260796 0.037692156 0.07556553 -0.10330764 0.04247823 0.0032890462
0.12310477 0.033866193 0.08595761 -0.027346522 -0.13034974 0.13180208 -0.0716822 -0.023161778
0.025115447 -0.00516785 -0.10046703 0.1516234 0.011166464 -0.13972346 0.034458145 -0.071635656
0.048023954 0.14755194 -0.09000956 0.030588828 -0.0405085 -0.114995696 -0.07467169 -0.0164802
0.06329943 -0.10262749 0.12348993 0.030875633 0.090650186 -0.08583098 0.04248713 0.09005393
0.115731195 0.067980565 -0.08043923 -0.07075111 -0.13726653 0.03712215 -0.032035913 -0.090331964
-0.0322416 -0.14431119 0.011377926 0.08143457 0.117062286 -0.042178124 0.07759276 0.10945913
-0.09474452 -0.037256576 0.01136573 -0.021461898 -0.027978092 -0.04047026 0.06169305 -0.022045717
-0.060273957 -0.10793515 -0.08687677 -0.0984641 -0.08799039 0.0129850255 0.06463586 -0.13443995
0.13265607 0.15082917 -0.1228533 0.060726717 -0.011037114 -0.00662406 0.103735164 0.08923742
-0.068481185 0.10013431 -0.13664263 -0.04608147 0.007020625 0.02362977 -0.05050786 -0.09673954
-0.079215735 -0.09285036 0.08289949 -0.10677239 0.091991134 0.111976095 -0.005166985 -0.115973376
-0.10773451 -0.0707269 -0.014009795 0.14602637 -0.121535935 -0.10896097 -0.09752523 -0.0100508435
0.063226536 0.07816391 0.05448116 0.050399754 0.031667862 -0.07801263 0.12634756 0.09386527
0.03235195 0.08680585 -0.053158436 0.13097985 0.1453114 -0.0021378333 0.13217632 0.09289996
0.051777974 0.10640215 0.09416279 0.14625971 -0.056942992 0.0135407755 -0.11685578 0.0725263
-0.07146742 0.020961331 0.07468869 -0.1266501 -0.15303534 -0.085467935 0.123851895 0.07944919

critic.0.bias f4 [256]
00000000: 4f0a f93d 8f6d 8a3d c326 dabd 4dbf fdbd
00000010: 9061 b63d c2ec 203c 2cd3 b53d 796d 243d
00000020: f501 973d ae0a 0b3e 6d4c a1bc 4529 53bd
00000030: c68a be3d 5c94 073d 37dc 18be e64c c4bd
00000040: 60ce 4a3d df65 a83d 85f7 e83c 9d1c 963d
00000050: 7be4 63bc 2818 abbd db84 1ebd ccfb c2bd
00000060: 82bb 773d f06e 753c 98b3 943d 826c febd
00000070: b1f4 fe3d 0192 63bd c2a7 a6bd 915c 9d3d
00000080: 9b65 2dbd a387 c93d 2f5c bc3c c38e af3d
00000090: 49f0 933d 6a4d 073e 028d dabd 2857 bfbd
000000a0: 32ee 853d 6198 00be 2d39 e2bd dee8 47bd
000000b0: 520c 18be f211 0c3e 1a5c 423d 3ae7 adbd
000000c0: 01b0 1e3d 7d20 2abd f2b1 d83c 8797 f83c
000000d0: ced1 1bbe a2a7 c1bd 5e6c 01be 83d0 1dbe
000000e0: b4a9 8fbd 4ef9 43bd fa3c 1d3e 7ba9 ab3c
000000f0: 4540 1d3e 0429 d6bd d2d6 e73c 07e1 1bbe
00000100: 6c6e 8e3c 1299 c13d e4fa 3fbd 7fb2 253d
00000110: ce55 263d 4cd1 273d c858 fbbd d61f 4c3d
00000120: 05fb 2abd fd56 5f3d 8463 2a3d 26dc d8bd
00000130: 3268 e63c 5d1c 15be 6d32 06be a497 0a3e
00000140: 4cd6 793d 0480 0e3c c67d bdbc 3bc3 e13d
00000150: f1d3 9abd bd38 ca3c 23d9 e3bb 78d9 a1bd
00000160: cc9d dbbd 26c5 88bd 0d4e 4abd cb9f 003e
00000170: c38d 823d ecbb ce3d 59f5 ac3d 2154 1b3e
00000180: 1888 073e ca9f 08bc fe55 f3bd 7210 0b3e
00000190: b41d 8d3d 2597 f43c 5476 b33d a12c e93d
000001a0: c2b7 0dbe 075a 4abc 0472 013e 448c e4bd
000001b0: 9cb0 d63d fbd9 ce3b 98f0 a23c 507d d73d
000001c0: b4c7 19bd d2a0 73bd 9e70 e33d a8c3 d73d
000001d0: b483 883d d329 333d a938 553d c67b b9bc
000001e0: e187 cf3b 8ffd 173e a1b4 4f3b 269e e83d
000001f0: 4629 73bd a85c 183e e162 86bd bce9 95bd
00000200: d7c4 8f3d f778 673c 6e35 1dbe 45e0 0d3e
00000210: 0c00 d7bc 33c4 d1bd f640 bcbd 078c 343c
00000220: c54b 113e 704c c43c 6bd9 d1bd f228 0ebe
00000230: eb06 95bd 6683 3a3d 1660 943b 2c68 32bd
00000240: f182 fc3d e747 b5bd b9b2 163e 76b0 00be
00000250: 4084 b13d 0db9 13bc 6276 053e d01c d8bd
00000260: e577 863d 6fe0 02be c7ae 70bd 3c06 e43c
00000270: 1118 a53d 82d8 17bd f90e 253c de38 f4bc
00000280: 8920 daba 334c 163e dbe2 e7bc e479 b9bd
00000290: bcc6 6ebd d5d6 253d ec0e b83d 9c30 8cbc
000002a0: c44c 903c f38e ea3d 3a8e d73d e37b 973d
000002b0: 2bcb 69bd 896f 9d3c f22d 163e 3fcf 07be
000002c0: 0eaf 343c 8c84 0abe 9225 09bc cd34 c33d
000002d0: 6d69 583d c650 b4bc b73b 0fbe cdc2 02bd
000002e0: 101a fdbc c585 0d3e f94f c03d 2bb9 dabd
000002f0: 1b67 e4bd effe 72bc d8cc 1dbe ab5a 09be
00000300: a947 60bc 255e 063e ec68 c03d eb3b a0bd
00000310: 22b1 0dbd cbf8 20bc 8d48 f23b 06f2 fb3d
00000320: fd67 59bd 357f 0a3e 38a7 e3bd 7177 67bd
00000330: 65c0 993c b511 b93d 7869 0a3d 504e 933d
00000340: 05dc 943d 1293 bbbd 310b 6d3d 6b35 04bd
00000350: 8ab0 e0bd 4b28 0cbd d044 383d aa62 813d
00000360: 80cd 33bd 1735 673d b24e e6b9 5afc 1abe
00000370: 4490 1d3d a145 d43c 4b19 98bc 0fc1 81bd
00000380: 0c4e 11bd b005 d8bd eade c0bb 731a 1b3e
00000390: bec5 253c 1544 9bbd dbd6 a2bd 8bc9 9dbd
000003a0: 2411 b8bd ed01 5f3c 0ff3 cb3d bc83 3d3d
000003b0: 15eb 85bd b629 05be cc65 e43d 565e cc3d
000003c0: 14a3 e9bd e406 c6bd fb4a 673d 46bc c73d
000003d0: d5f7 dd3c 3096 82bd 038e e1bb 396e 0c3e
000003e0: 16a2 f9bc d839 0cbe 26e4 ca3d e235 b73d
000003f0: a71b 363d 039c 1d3d 6439 1f3c 6179 393d
0.12160169 0.06759178 -0.106519245 -0.12390003 0.08905327 0.009822072 0.088781685 0.040143464
0.0737342 0.13578293 -0.019689763 -0.05155303 0.09303813 0.03310047 -0.14927755 -0.0958498
0.04951322 0.08222555 0.028438339 0.07329676 -0.013909454 -0.08354217 -0.03870092 -0.09520683
0.060481556 0.014980063 0.07260817 -0.1242304 0.12449015 -0.055559162 -0.08137466 0.07683671
-0.042333227 0.09840324 0.022993175 0.085721515 0.07223565 0.13213125 -0.10671426 -0.093427956
0.06539573 -0.12558128 -0.11046062 -0.048806064 -0.1484845 0.1367872 0.047451116 -0.084913686
0.03874207 -0.04153489 0.026452038 0.030345691 -0.15216753 -0.094558015 -0.12638995 -0.15411572
-0.0701479 -0.047845177 0.15355292 0.020954838 0.15356548 -0.10457042 0.028300676 -0.1522256
0.017386638 0.09453024 -0.046870127 0.04045343 0.040609173 0.040971085 -0.12272793 0.04983505
-0.041743297 0.054526318 0.04159881 -0.10588865 0.028125856 -0.14561601 -0.13105173 0.13534409
0.060995385 0.0086975135 -0.023131263 0.110235654 -0.07559956 0.024685258 -0.006953375 -0.07902807
-0.10723457 -0.06678228 -0.04939084 0.12560956 0.06374695 0.10094437 0.08445234 0.15168811
0.1323551 -0.008338878 -0.11881636 0.13580492 0.06890431 0.029857228 0.08762804 0.113854654
-0.1383963 -0.012350566 0.1264115 -0.11159566 0.10482904 0.0063126064 0.019890115 0.10521948
-0.037543967 -0.059479542 0.111054644 0.10535365 0.066657454 0.04374106 0.05205599 -0.022642028
0.0063333367 0.14842819 0.0031693357 0.113582894 -0.059365533 0.14879096 -0.065618284 -0.07319972
0.07019966 0.014127961 -0.15352413 0.13855083 -0.02624514 -0.102425 -0.09192078 0.011019713
0.1418906 0.02396223 -0.10246547 -0.13882807 -0.0727671 0.045535468 0.004528056 -0.043556377
0.123296626 -0.08851605 0.14716615 -0.12567315 0.08667803 -0.0090162875 0.1303344 -0.105523705
0.06565837 -0.12780927 -0.05876043 0.027835004 0.08061231 -0.037071712 0.010074371 -0.029812273
-0.0016641776 0.14677505 -0.028306415 -0.09056452 -0.058294997 0.040488083 0.08987221 -0.017113023
0.01761473 0.11453047 0.105251744 0.073966764 -0.05707852 0.019218223 0.14665964 -0.13262652
0.011028064 -0.13527125 -0.008370774 0.09531555 0.052834917 -0.022011172 -0.13987623 -0.031924058
-0.030896217 0.1382056 0.093902536 -0.10679849 -0.11152478 -0.014831289 -0.15410173 -0.13413493
-0.01368896 0.13121851 0.09395012 -0.078239284 -0.034592755 -0.009824942 0.0073939026 0.12302022
-0.053077687 0.13525088 -0.11115879 -0.056510393 0.018768499 0.090365805 0.03379199 0.07192671
0.07268528 -0.09158911 0.057872 -0.032277506 -0.10971172 -0.034218114 0.0449875 0.06317647
-0.043897152 0.056447115 -0.0004392765 -0.15135327 0.03846766 0.025912108 -0.018566748 -0.06335651
-0.035474822 -0.1054796 -0.0058859484 0.15146808 0.010117946 -0.07581345 -0.07951137 -0.07704457
-0.08987644 0.013611299 0.09958469 0.04626821 -0.06538979 -0.13004193 0.11152229 0.09978931
-0.11408058 -0.09669283 0.05646799 0.09752707 0.027095715 -0.06376302 -0.006883384 0.13713922
-0.030472796 -0.1369394 0.09906797 0.08945824 0.044459965 0.038478862 0.009718273 0.04528177

critic.2.weight f4 [128, 256]
00000000: 488d debc a469 7c3d 50be 2ebd a88c 343c
00000010: 608e 763d 6400 273d 3845 22bd a4d7 c63c
00000020: 4429 3dbd 5e5a 6cbd 3ced 7f3d 7ccb ab3c
00000030: 6824 523d 904a 503d 44b6 05bd ceae 483d
00000040: 1c6a 983c b8c0 6dbd dcb2 4a3d c466 0f3d
00000050: 12cc 563d 8421 ee3c 50b0 943c 483a 4ebc
00000060: 6803 263c 90fc f43b c021 063d 065f 353d
00000070: e499 d1bc 98fe 2fbc 4a1e 0e3d ced9 1abd
00000080: 9030 ebbc c0a1 483d d05a f2bb dcdc 69bd
00000090: 704d ce3c c40d a93c 280e c83c a057 ed3c
000000a0: 68c1 79bc 9471 c6bc 7ef2 143d a44c 583d
000000b0: 2e5f 683d c0bc 353d d648 23bd a4ce 753d
000000c0: acb0 203d 2e1d 7fbd 9aa9 483d e027 62bb
000000d0: 1830 6b3d b4de d73c 0c3c 9d3c 80d2 5abd
000000e0: 8a1b 74bd 545e c03c 1ca0 643d f0ce 06bd
000000f0: c478 ae3c baeb 3c3d 1c36 de3c 78ef 203d
00000100: 6828 c1bc 44d7 d03c 8e5c 1ebd 9e77 353d
00000110: 7a86 60bd 0477 a1bc 10c5 aebc fc92 943c
00000120: 0083 c1b9 cc82 fe3c d869 cabc 8484 823c
00000130: f6be 123d 0882 0cbc 1856 f6bc 4e6a 7dbd
00000140: b8be 033c 903a 22bc 30a4 4b3c 7896 da3c
00000150: 2230 2b3d 486e 0cbd 146f 7d3d 0062 18bd
00000160: b627 383d 6a5c 0c3d 4a9d 2cbd f058 b63c
00000170: 5ca9 7d3d 50d0 203c 20d0 49bd 6a69 73bd
00000180: 78cb bd3c 9060 1f3c e087 15bc 2417 35bd
00000190: 6c87 bcbc 347a 313d 6c8a bebc 1261 34bd
000001a0: 7800 153c 7070 533c 7824 82bc d813 ac3c
000001b0: 74b1 c63c 16c8 0ebd d804 ebbc 1c95 2fbd
000001c0: b461 5fbd 3875 073d b250 69bd 5c60 403d
000001d0: f8bb 5a3d d662 0abd 60f3 94bb 82dc 0fbd
000001e0: 68a0 7fbc 3a81 15bd 5624 17bd c8c7 7dbc
000001f0: 1873 1d3d 3452 e23c 3cd5 d23c 4081 a63c
00000200: 1222 3fbd baf7 3bbd 44e0 cf3c 7030 18bc
00000210: fe86 3bbd 7e15 73bd 36a1 37bd e81a ba3c
00000220: 1ed5 4b3d b015 79bc 029f 2b3d 7087 d3bb
00000230: bc40 cb3c d863 533d 9ae6 0ebd 7888 4dbc
00000240: 9045 14bc 68fd 36bd 545b b1bc ac86 6c3d
00000250: 70fc f53b 6069 53bd 66d9 6cbd 4a4c 3ebd
00000260: 389b c43c 4816 cabc 2e69 1c3d b6b7 7d3d
00000270: 3c38 1ebd 30e0 8d3c d091 3bbc 64c6 1fbd
00000280: d852 613c dc07 c1bc 1070 113c 32d3 773d
00000290: bcc4 15bd 4021 0ebb 5036 19bd 3ebf 39bd
000002a0: 7a7a 743d 60fb c6bb 6078 c7bc 68d3 2f3d
000002b0: cc7c b1bc e08b fdbb ac4d 6b3d 3044 c4bc
000002c0: 12a9 293d 1ec6 51bd 2848 a6bc dc64 59bd
000002d0: 10ff d53b 8416 da3c dcbe 35bd 68d1 8d3c
000002e0: d06b 55bd 4053 8abc be47 25bd eaec 463d
000002f0: 4218 28bd dcf2 09bd 3064 593d 3838 18bc
00000300: 347b 363d 8079 1e3c d0f8 84bc 0c55 9cbc
00000310: 4061 77bc 188c de3c 088b 4a3c f680 433d
00000320: 7ef2 36bd ce08 43bd 9887 0a3d a83f 3a3d
00000330: e80a 40bc 9ae0 41bd e897 ccbc 4887 76bc
00000340: 80ff 993a 7827 923c d00e ad3c 9c92 9bbc
00000350: ea5c 56bd a0cf 8c3c 2835 51bd e0fb 74bc
00000360: 7c13 12bd 60e4 013c f847 593d c094 3abc
00000370: 588d 61bd 80f9 7b3d 20f2 343c 403a 203d
00000380: c05a 58bc 840f c93c 7a3d 5d3d 1087 8d3b
00000390: 92db 393d d041 f03b 802a 303d 701f a1bb
000003a0: d0dc 02bd 4247 77bd d884 2c3d 4881 1bbd
000003b0: 00a7 20ba 5a0f 2abd f8a4 b43c cc94 7b3d
000003c0: ec33 b3bc f851 bbbc 0ae6 6c3d c481 9e3c
000003d0: 283d 2cbc 3a4c 0dbd 5e40 3f3d 502e 7b3d
000003e0: 0446 543d e006 383d 9015 4fbd d69a 253d
000003f0: f841 3cbd 0039 73bc 4858 d5bc 3ceb fbbc
-0.027166978 0.061624184 -0.042661965 0.011019863 0.060194373 0.040771857 -0.039616793 0.024272747
-0.046181932 -0.05770337 0.062482104 0.020971052 0.05130425 0.05085236 -0.032644525 0.04899483
0.018605284 -0.05804512 0.04948698 0.035010114 0.05244071 0.029068716 0.018150479 -0.0125871375
0.010132648 0.007476397 0.03274703 0.044280075 -0.025586076 -0.010741852 0.034696855 -0.03780537
-0.02870968 0.04898238 -0.0073960796 -0.057095394 0.02518341 0.020636447 0.024420813 0.028972447
-0.015243866 -0.02422408 0.03636407 0.052807465 0.056731395 0.04436946 -0.039864384 0.06001152
0.039230987 -0.062283687 0.04898987 -0.003450863 0.057418913 0.02635131 0.019193672 -0.053423405
-0.059596576 0.02348248 0.055816755 -0.032912195 0.02129782 0.046123244 0.02712541 0.039290875
-0.023578838 0.025493272 -0.038662486 0.04430353 -0.054815747 -0.019710071 -0.021334201 0.018136494
-0.0003690943 0.031068228 -0.024708673 0.015932329 0.035826646 -0.008575924 -0.03007035 -0.06186896
0.008041076 -0.009901658 0.012429282 0.026683077 0.04179395 -0.03428486 0.06187351 -0.037202835
0.044959746 0.03426782 -0.04214219 0.022259206 0.06192909 0.009815291 -0.04927075 -0.059426703
0.02316831 0.009727612 -0.009126633 -0.04421152 -0.023013793 0.043329433 -0.023259364 -0.044037886
0.00909435 0.012905225 -0.01588653 0.021005556 0.024254538 -0.034858786 -0.028688833 -0.04286681
-0.054536536 0.033070773 -0.056961723 0.046966895 0.053401917 -0.033785664 -0.004545614 -0.035122402
-0.015602209 -0.036500193 -0.036899887 -0.015489526 0.03843984 0.027627088 0.025736444 0.020325303
-0.04666335 -0.045890547 0.025375493 -0.009288892 -0.045783035 -0.05934667 -0.044831477 0.022717908
0.04976379 -0.015202925 0.04189969 -0.0064553544 0.024811141 0.05160889 -0.034887888 -0.012544744
-0.009049788 -0.04467526 -0.021649994 0.05774562 0.0075068995 -0.051614165 -0.057824515 -0.046459474
0.023999795 -0.024668828 0.038186245 0.06194278 -0.038627848 0.017318815 -0.011448339 -0.03900756
0.013752662 -0.023563318 0.008876815 0.060504146 -0.036564574 -0.00216873 -0.037405312 -0.0453484
0.059687115 -0.0060724467 -0.024349391 0.042926222 -0.021665953 -0.0077376217 0.05744712 -0.023958296
0.041421004 -0.05121433 -0.020298079 -0.053074703 0.00653065 0.026622064 -0.04437147 0.017311767
-0.05210477 -0.0168854 -0.04035162 0.048565783 -0.04103876 -0.033678874 0.053074062 -0.009290747
0.04455109 0.009672523 -0.016231924 -0.019083522 -0.01509887 0.027166411 0.012362249 0.04773041
-0.044664852 -0.04761582 0.03382072 0.045470864 -0.01172135 -0.047333337 -0.024974778 -0.015046902
0.0011749119 0.017841086 0.021125227 -0.018990807 -0.052334704 0.017188847 -0.051076084 -0.01495263
-0.035663113 0.007927984 0.05304715 -0.011388004 -0.055066437 0.06151724 0.011044055 0.03911805
-0.01320523 0.024543531 0.054013707 0.004319079 0.045375414 0.007332064 0.04300928 -0.0049170777
-0.031948864 -0.06037069 0.042118877 -0.03796509 -0.00061284006 -0.041518547 0.02205132 0.0614212
-0.021875344 -0.022866234 0.05783657 0.019348986 -0.010512628 -0.034496523 0.046692245 0.061323464
0.051824585 0.04492843 -0.050557673 0.040430866 -0.04596135 -0.014845133 -0.026043072 -0.030751817
